preliminary/net.pkl (torch_old, 339975 bytes, 11 tensors)

weight f4 [176, 352]
000000 20 d3 81 be 00 a8 63 be 55 18 6e be 6c 1d 3d be
       -0.25356388 -0.22232056 -0.2325147 -0.18468255
000010 9d 25 64 be 96 cb 3e be ce 03 69 be 66 3d 39 be
       -0.22279973 -0.1863235 -0.22755358 -0.18089828
000020 6d 69 67 be 14 d6 8b be b2 05 50 be d0 f9 89 be
       -0.2259881 -0.27311766 -0.20314673 -0.26948404
000030 54 5e c9 bd 53 f4 a6 be e0 59 5f bf b3 5f 61 be
       -0.09832445 -0.3260828 -0.87246513 -0.22009163
000040 61 24 09 3f 0c 07 c4 3e 75 c1 04 bf 1f 73 de be
       0.53571135 0.38286626 -0.5185769 -0.43447205
000050 17 a0 a7 be b9 f1 3c 3e 1f a1 f4 3e fc 67 09 3f
       -0.32739326 0.18451585 0.47779176 0.5367429
000060 85 aa f4 3b fb f6 a2 be 05 51 4b bf f4 5d 4a 3f
       0.0074666166 -0.31829056 -0.794205 0.7904961
000070 e0 e2 25 3f 3e 72 b7 3d 60 06 31 bd c4 ad 46 bf
       0.6479931 0.08957337 -0.04321897 -0.77608895
000080 15 5f 60 bf 9d ff d3 3c 75 f9 a0 3e 20 59 90 be
       -0.87645084 0.025878722 0.3144032 -0.28192997
000090 84 44 15 bf 73 34 16 be 68 50 0b 3c 9a da 3b 3e
       -0.5830767 -0.14668445 0.008503057 0.18345109
0000a0 e7 85 4f 3e 63 97 23 bf 2c b2 51 bf 42 71 53 bf
       0.20265923 -0.6390287 -0.81912494 -0.8259469
0000b0 f4 de 21 bf 8e d5 26 3f 68 d7 fe be 3a ff b7 bf
       -0.63230824 0.6516961 -0.49773717 -1.4374764
0000c0 34 ce 0b 3f 00 73 1a bf d1 d1 eb 3e df 8a ba 3f
       0.54611516 -0.60331726 0.46058515 1.457363
0000d0 6d 2a 05 40 d5 2f 7f bf c1 2f a1 c0 c4 2c 4a bf
       2.0807145 -0.9968236 -5.0370793 -0.78974557
0000e0 91 6f 2d 40 43 8f 77 c0 75 e6 0f 3e 6f 16 31 40
       2.7099345 -3.868119 0.14052756 2.7669942
0000f0 12 2f 15 c0 5c 8b 42 bf d2 63 e0 3f 82 13 46 be
       -2.330998 -0.75993896 1.7530463 -0.19343379
000100 f4 6e 4f 3f 34 d5 95 40 93 45 8f bf d1 27 13 c0
       0.81028676 4.682276 -1.1193107 -2.2993052
000110 82 97 50 bd 58 54 a5 bf 8b 6f 22 40 a7 f4 87 40
       -0.05092574 -1.2916365 2.538058 4.248615
000120 07 cd bf 3e 1a 69 3b c0 c7 26 ad bf b6 25 90 40
       0.3746111 -2.92829 -1.3527459 4.5046034
000130 5f 62 8f bf 69 69 a7 40 74 d4 89 40 1d 5b ba 3f
       -1.1201895 5.2316175 4.307184 1.4559056
000140 a5 6b a8 3f 4f ab 9f bf 7d 7c d5 bf bf 42 19 c0
       1.315785 -1.2474154 -1.6678616 -2.3946989
000150 bc 29 ad c0 cd 37 dc 3f ed 10 82 c0 fb 2b 18 c0
       -5.4113445 1.7204529 -4.064566 -2.3776844
000160 a1 da 93 3e 80 a0 99 3e ca 0a 9a 3e aa 30 87 3e
       0.28877738 0.30005264 0.30086356 0.26404315
000170 50 c7 90 3e 40 29 9b 3e c7 a4 99 3e 01 7a 9d 3e
       0.28277063 0.3030491 0.30008528 0.30757144
000180 2c 42 95 3e 33 b6 a9 3e 1b f9 ac 3e f6 10 a2 3e
       0.29152048 0.3314682 0.33783802 0.31653565
000190 e5 26 13 3e 29 3b bd 3e f7 f9 d8 bd 87 67 82 3f
       0.14370306 0.36959198 -0.10594552 1.0187844
0001a0 08 f4 c8 3c f6 ee 09 3f 81 51 86 3e 9a 31 9f 3d
       0.024530426 0.5388025 0.26234058 0.077731326
0001b0 6a b6 20 bf 12 af cc 3f 83 3d 63 be 1a 6c 36 3f
       -0.6277834 1.5990927 -0.22191434 0.712587
0001c0 9a 86 f7 3e 2a 4b 43 3e ab f2 c8 bd 59 7d 64 3f
       0.4834488 0.19071642 -0.0981191 0.89253765
0001d0 a5 fe 94 3d 46 9e da 3e f8 d0 bf 3e c0 98 ab bd
       0.07275132 0.42698878 0.37464118 -0.08378744
0001e0 db 87 6d be 0f dd 11 3f 16 54 83 3f b8 e9 36 3f
       -0.23196356 0.56977934 1.0260036 0.71450377
0001f0 2e 8e 16 3e ba 83 bb 3d a9 d5 c2 be 59 e1 71 3f
       0.14702675 0.09155984 -0.38053635 0.9448448
000200 62 18 5e 3f 82 bd f3 3e 69 bc 59 3e ce 75 87 3e
       0.86755955 0.4760552 0.21263279 0.26457065
000210 56 bc 50 be 56 37 80 3e 9c a3 11 be 01 11 82 bf
       -0.20384344 0.25042218 -0.14222568 -1.0161439
000220 68 c9 8e 3e d1 f2 db bf 9d 1a 6c be 1f 84 17 bf
       0.27888036 -1.7183477 -0.23057027 -0.59185976
000230 ce ad 12 c0 fe 98 26 40 5b ab 85 bf c3 0e e9 3f
       -2.2918582 2.603088 -1.0442919 1.820763
000240 93 ce fc 3e 67 d6 29 bf 02 76 2a be e7 da db 3f
       0.49376354 -0.66342777 -0.16646579 1.7176179
000250 7b d2 1c c0 99 4c e1 3d fc 3b 45 3f 46 f0 5b c0
       -2.4503467 0.11000938 0.77044654 -3.4365401
000260 ad 98 81 bf 66 c3 c8 40 5b b5 a1 3f 70 84 9e bf
       -1.0124718 6.2738523 1.263347 -1.2384167
000270 ef fd dc 3e 62 80 1d bf 95 61 a1 3f 21 ba d0 3e
       0.43162486 -0.6152402 1.2607905 0.40767005
000280 9f cb ab 3f 61 8d 42 3f 55 57 74 bf c7 7f bb 3f
       1.3421515 0.7599698 -0.9544576 1.464837
000290 da e2 32 3f d4 b8 0c 40 13 3a a9 3f 74 65 59 bf
       0.698774 2.198781 1.3220848 -0.8492043
0002a0 e2 42 a5 be 1c 07 aa 3e e4 dc 11 3f 70 41 28 bf
       -0.3227759 0.3320855 0.5697768 -0.6572485
0002b0 77 21 9e bf ed 8a d7 be 12 2a 5c bf 39 fa 87 bf
       -1.2353963 -0.4209818 -0.86001694 -1.0623237
0002c0 c3 a9 19 bd ee 94 36 3c db 9d 29 3d b2 96 3f 3d
       -0.037515413 0.011143906 0.04141031 0.046774574
0002d0 97 f7 93 3c e1 83 60 ba 18 c4 81 bc 5a 85 14 bd
       0.018062396 -0.00085645734 -0.015840575 -0.036259986
0002e0 e6 a4 63 3d f6 42 3c bd f4 68 eb bc b8 52 f3 bc
       0.05557718 -0.045962296 -0.028736569 -0.02970253
0002f0 ae 27 87 3d 32 16 75 be 13 e2 0a bf af fe 72 bd
       0.06599365 -0.23934248 -0.5425121 -0.059324916
000300 09 ab 8b bc 8a 24 aa 3c ec 4d 07 3e 25 94 d5 be
       -0.01704933 0.020769376 0.13213319 -0.41714588
000310 b6 5e 94 bd b9 30 58 3e d5 f0 c1 bd 41 c6 c0 3e
       -0.07244627 0.21112336 -0.09469763 0.37651256
000320 93 93 e2 3d 05 fc 0c bf 0e c7 02 3e 1a 79 e1 3e
       0.11063304 -0.5507205 0.12771246 0.44037706
000330 0e 50 cb bd 59 54 46 3f ad 51 f6 3d 50 6a a1 bd
       -0.099273786 0.77472454 0.12027297 -0.078816056
000340 4f 13 84 be 24 e0 f0 bd e2 83 50 bd 87 65 ff 3e
       -0.2579598 -0.117615014 -0.050907023 0.49882147
000350 21 a7 72 be f9 31 98 3e 93 64 0b 3d 68 5d 36 3e
       -0.23696567 0.29725626 0.034031462 0.17809069
000360 25 60 bc 3e 51 ce 89 3e e4 5b a6 3e ff 8d 8d 3e
       0.36792102 0.2691522 0.32491982 0.27647397
000370 6c 1d a0 be 26 0a d0 3e 41 be 52 be 85 a8 fc bf
       -0.31272447 0.40632743 -0.20580389 -1.9738928
000380 ea 56 ef 3e 65 c4 53 be eb 11 5e 3e 37 cd dc 3e
       0.46745998 -0.20680387 0.21686523 0.43125317
000390 ae 3f 9d 3e 74 5d b4 3f a5 5c 9d bf 40 92 1f bf
       0.30712646 1.409102 -1.2293898 -0.62332535
0003a0 0e d0 86 3f da ed 79 40 0d af 5e c0 8c 6a ef 40
       1.0532243 3.9051423 -3.4794343 7.481756
0003b0 aa 3f 78 bd 72 2b a0 bf 86 e6 e6 3e 54 8a f9 3f
       -0.06060759 -1.2513258 0.4509775 1.9495339
0003c0 4d f3 6c 3e 60 14 b3 3f 77 0d ac 3f 18 5e e7 bf
       0.23139687 1.3990593 1.3441609 -1.807559
0003d0 dd 3b d3 3e 0d a7 3a c0 11 72 40 c0 0b da 84 bf
       0.4125661 -2.916446 -3.006962 -1.0379041
0003e0 35 68 05 be 5d e1 ef 3f ad 42 93 bf e9 55 e5 40
       -0.13028033 1.874065 -1.1504723 7.166737
0003f0 58 c2 cc be 52 6d eb be 07 98 82 3f d8 4f 84 3f
       -0.39992023 -0.45981842 1.0202645 1.0336866

bias f4 [176]
000000 42 50 00 ba f9 44 b1 39 9d 74 08 3a 1f 08 c4 39
       -0.0004894772 0.0003381146 0.0005205365 0.00037390084
000010 b2 62 bc 39 ab f0 ae 36 1e f2 d6 3a 72 c3 db 39
       0.00035931688 5.2136215e-06 0.0016399061 0.00041916553
000020 5b df 03 ba e6 b4 04 b9 65 d8 e5 b9 fa dd 5c b9
       -0.0005030536 -0.00012655891 -0.0004383951 -0.00021063528
000030 46 3f 60 b8 cd c2 34 39 ce 18 96 b9 90 69 15 ba
       -5.346469e-05 0.00017238707 -0.0002862871 -0.0005699629
000040 40 4c 3b 39 f3 28 38 3a 42 59 d1 b9 f3 24 b3 b9
       0.00017862115 0.0007025145 -0.0003993009 -0.0003416907
000050 76 b5 e2 b9 cb 13 9c b8 d4 d5 4e ba 62 9e f7 39
       -0.00043241278 -7.4423464e-05 -0.0007890139 0.00047229516
000060 75 a8 08 3a d4 78 13 b9 86 0e 6e 39 02 0e 09 ba
       0.00052130903 -0.00014064024 0.00022702859 -0.00052282226
000070 7f 8f 38 3a 1d 01 da 39 75 5e b6 b9 c2 1e 9c 39
       0.00070404256 0.0004158103 -0.0003478412 0.00029777555
000080 e6 f5 8b 39 80 16 bb b9 32 4b ad 39 6e 8e e5 b9
       0.00026695355 -0.00035684183 0.00033053156 -0.00043784402
000090 c9 9f 5f b9 22 40 1a 39 e8 1e 97 39 c1 5c 63 b8
       -0.00021326462 0.00014710476 0.0002882399 -5.42074e-05
0000a0 65 67 63 b9 7f 72 81 39 bd 17 9b 39 84 b6 0e 39
       -0.00021686924 0.00024690104 0.0002958159 0.00013610168
0000b0 7d a1 4a 3a 10 21 1f b8 e4 05 26 39 6f 7f cb b9
       0.0007729752 -3.7939346e-05 0.00015833188 -0.00038814123
0000c0 1b 70 aa b9 d0 9d 0c 3a e7 dd 4e ba ae f6 11 3a
       -0.00032508452 0.0005364092 -0.00078913424 0.0005568069
0000d0 76 97 69 39 f1 d1 b6 38 b2 a2 43 3a 6b 23 f2 b9
       0.00022277035 8.717541e-05 0.0007462903 -0.00046184225
0000e0 53 65 4e ba 7d 4b 08 ba 09 04 ac b9 49 02 30 b9
       -0.0007873375 -0.0005199237 -0.00032809403 -0.00016785519
0000f0 af 21 ec 38 d5 87 10 39 64 80 e5 b8 87 8d 0e ba
       0.00011259631 0.00013783512 -0.000109434855 -0.00054379593
000100 e0 b9 88 39 5f 20 00 ba 3d 1f 85 b9 db b1 0a 39
       0.0002607843 -0.0004887636 -0.0002539101 0.00013226962
000110 92 64 ac b9 f8 f1 3c 37 3e fd e6 38 76 c7 a5 39
       -0.00032881327 1.1262011e-05 0.00011014425 0.00031619862
000120 51 b0 94 3a b1 5d 50 b9 d9 e8 26 b7 5d e5 55 39
       0.001134405 -0.00019871329 -9.948585e-06 0.00020398707
000130 09 cd be 39 db 2d 40 3a 29 a6 df b8 b8 a3 86 b9
       0.00036392387 0.0007331052 -0.000106644184 -0.00025680452
000140 aa 0e b1 b8 2a e4 bd b9 fc 70 1b 3a f5 99 0d 3a
       -8.442749e-05 -0.00036218885 0.0005929617 0.00054016645
000150 55 76 4f b9 fa 79 42 ba 39 c0 6b 38 90 ca b4 b9
       -0.0001978514 -0.00074186886 5.6207387e-05 -0.00034483196
000160 07 cd 8a b9 46 b4 43 35 48 1a c7 b9 a3 b7 01 3a
       -0.00026474168 7.2905493e-07 -0.0003797582 0.00049483235
000170 fe a9 98 ba 8d fc d7 38 ba 56 f7 39 90 10 09 ba
       -0.0011647341 0.0001029904 0.00047176128 -0.0005228603
000180 b1 08 e7 b9 4b c8 dd 39 d5 e8 70 b9 31 93 28 b8
       -0.0004406623 0.00042301635 -0.0002297492 -4.0191404e-05
000190 71 8e a4 b9 91 ef 9a b9 5d 93 b1 38 15 b2 fa b9
       -0.00031386645 -0.0002955166 8.467466e-05 -0.00047816397
0001a0 cf 10 0e ba 8d f3 84 b9 f9 e1 ec 39 f6 3b 03 3a
       -0.0005419375 -0.0002535846 0.0004518179 0.00050061883
0001b0 d0 1e aa 39 c4 16 d3 b9 fe 55 b7 b9 41 03 8d 39
       0.00032447884 -0.00040262018 -0.0003496855 0.0002689604
0001c0 53 df 89 39 de 54 07 39 95 c4 28 ba 8d 24 2d ba
       0.00026297066 0.00012906219 -0.00064379844 -0.0006604873
0001d0 80 84 02 ba 98 06 1e ba 08 71 a7 39 62 02 3f ba
       -0.00049788505 -0.0006028204 0.00031936937 -0.0007286427
0001e0 9f a1 26 3a 43 20 6d b9 e5 64 cc ba 9a 63 58 39
       0.0006356481 -0.000226141 -0.0015594034 0.0002063647
0001f0 d5 c2 0f ba 54 33 8f b9 01 5c ab ba ea 85 c1 39
       -0.00054840493 -0.00027313328 -0.0013073684 0.00036911602
000200 5e d1 6a 39 a1 f9 f2 37 a5 01 c1 b8 0e b5 2e b9
       0.00022393974 2.896489e-05 -9.2032635e-05 -0.00016661381
000210 b0 6e 2f b9 3a 61 05 3a 14 cd 43 bb a8 b8 a1 b9
       -0.00016730535 0.0005088035 -0.0029876875 -0.00030845893
000220 47 65 bb 39 57 d5 46 39 a6 66 10 39 14 70 cf 3a
       0.00035742877 0.00018962227 0.0001377115 0.0015826249
000230 f7 01 86 39 1f f2 4d ba 09 a8 35 b9 42 c2 01 3a
       0.00025559936 -0.0007856208 -0.00017324103 0.0004949906
000240 e6 cd 29 ba 38 3e 3f 3a 9e 72 e8 b7 ef 56 09 ba
       -0.00064775196 0.0007295343 -2.7709928e-05 -0.00052390894
000250 4f 54 96 39 80 55 e3 39 d3 c7 86 ba 79 ee 0f 3a
       0.00028673044 0.00043360516 -0.0010282941 0.0005490552
000260 4e 2b c8 39 36 f4 d5 ba 82 7b 8b 38 bc 46 a7 39
       0.00038179237 -0.0016323391 6.6510416e-05 0.00031905423
000270 dd d6 1d 3a a2 3b f1 ba c5 72 c5 39 e1 e0 22 3a
       0.0006021092 -0.0018404613 0.00037660278 0.0006213319
000280 65 49 9e 39 d9 81 d7 b9 8e 3a d8 39 60 82 c7 39
       0.00030190792 -0.0004110474 0.00041242357 0.00038053375
000290 c1 be 16 38 16 16 a5 3a e4 88 81 39 e3 17 ca 39
       3.594044e-05 0.0012595083 0.0002470679 0.0003854624
0002a0 25 dc 19 39 0c 2a 03 ba ff 35 1d ba 8d e9 c9 b9
       0.00014673227 -0.0005003519 -0.0005997121 -0.00038511716
0002b0 d8 d8 1d bb f6 43 bb 39 12 cd b2 39 81 9d 9f 39
       -0.0024085548 0.00035718054 0.00034103595 0.00030444193

weight f4 [88, 176]
000000 ef 95 a8 bd ca 61 94 3f a1 c3 8a 3e 51 b9 29 bf
       -0.082317226 1.1592343 0.27102378 -0.66298395
000010 67 15 ce 3e a0 98 01 3e 17 87 5b bf 34 12 b5 3f
       0.40250704 0.12655878 -0.85753006 1.414618
000020 e6 93 31 bf f3 b1 a7 3d 7a 62 50 bf 51 61 ee 3e
       -0.693663 0.08188238 -0.81400263 0.46558622
000030 9c b6 8d bf 2b 36 b8 3e 95 25 cc 3e f7 35 63 3b
       -1.1071353 0.35978827 0.39872423 0.0034669617
000040 a3 f3 d7 bc 94 46 12 3e 70 7d 59 bf 93 3b 24 bf
       -0.026361292 0.14284736 -0.8495703 -0.64153403
000050 99 07 d2 3f d6 d5 27 be dd 2f c8 be 90 dd 0d bf
       1.6408569 -0.16390166 -0.39099017 -0.554162
000060 a7 2d b8 3e dc 49 d6 3d f8 cf cd 3f 6a 62 22 bf
       0.3597233 0.10463306 1.6079092 -0.6343142
000070 22 00 8b 3f 0e 8e f0 3c 9e 3c ee bf ef 30 b1 3f
       1.0859416 0.029364612 -1.8612249 1.3843058
000080 b4 58 cc 3f d6 06 92 be 9b f2 97 3e 2b 68 6d bf
       1.596457 -0.2852084 0.2967728 -0.9273707
000090 20 f3 a3 bf 55 11 11 3f 5c 45 f1 3e f4 4b c6 3e
       -1.2808571 0.5666707 0.4712323 0.38729823
0000a0 71 d4 30 3d 15 4a ba 3f be 17 90 3e a8 d5 73 3e
       0.04317135 1.4553858 0.28143114 0.23811972
0000b0 1b c9 68 be 32 3d 41 bf 33 6a 7f 3f d9 bc 69 bf
       -0.22732966 -0.75484 0.9977142 -0.91303784
0000c0 2b 2a 8a bf c1 1b ba 3e d6 cd 1f bf 52 35 8a 3f
       -1.0794119 0.363493 -0.62423456 1.0797522
0000d0 f2 6a 75 3f 1b 62 e6 be fa db 51 bf 34 61 b8 be
       0.9586631 -0.44996724 -0.8197628 -0.3601166
0000e0 75 74 86 bf 57 d2 19 bf 72 c2 5f bf 0d 02 b1 bf
       -1.050429 -0.6008658 -0.87406075 -1.3828751
0000f0 07 ed fa 3f 70 a0 e9 3f 7c b2 d0 3e 50 05 20 3f
       1.9603585 1.8252087 0.40761173 0.62508106
000100 18 e5 e8 3f 08 74 29 bf 62 29 0a bf 63 d2 f7 be
       1.8194914 -0.66192675 -0.53969395 -0.484027
000110 66 a6 ba bf 6f d0 1a 3f e5 f4 82 bf 4f cb 74 3f
       -1.4582031 0.60474294 -1.0230986 0.95622724
000120 54 50 cf be 96 34 a9 be 8f 67 2b 3f 33 4f 3d 3f
       -0.40490973 -0.33047932 0.6695489 0.73948973
000130 97 b5 5f 3f 78 b8 1b bf f4 98 e8 3e d1 28 82 bf
       0.8738646 -0.6082835 0.45429194 -1.0168706
000140 e4 0c 5d bf 9c 7c 8b bf 38 fa 32 3f 16 6c 97 3f
       -0.86347795 -1.0897403 0.69913054 1.182986
000150 e7 c7 ed bf e6 3c 29 3f fa c6 db be 79 e0 c4 3f
       -1.857663 0.6610855 -0.42925245 1.5381004
000160 b8 3b b9 be c4 a8 01 3f 0c 2b 78 bf fb c5 9d bf
       -0.36178374 0.5064814 -0.96940684 -1.2326044
000170 23 2f 65 3f 8c d5 65 3e af c2 9d 3f 1d b3 02 be
       0.8952505 0.22444743 1.2325038 -0.12763639
000180 e4 ec ab bf ef 64 bb 3f fa 57 2c bf 97 58 94 3f
       -1.3431668 1.4640177 -0.6732174 1.1589535
000190 ee 0a 88 bf 83 09 c5 bd b1 cc 9c bf 68 2e 11 3e
       -1.0628335 -0.09620955 -1.2249967 0.14177859
0001a0 d0 43 72 bf 11 3c 35 bf dd b8 f6 3d 88 45 29 3e
       -0.94634724 -0.7079478 0.120469786 0.1653043
0001b0 52 7e f4 3f ff f5 46 bf 45 0d e2 bf fd 06 87 3f
       1.910105 -0.7771911 -1.76603 1.0549008
0001c0 8e 71 10 3f b4 d9 69 be e3 8b 20 3f 58 58 9a bf
       0.5642327 -0.22836953 0.6271345 -1.205821
0001d0 11 da 25 bf d8 67 53 be 44 32 97 3f 21 3d 28 bf
       -0.6478587 -0.20645082 1.1812215 -0.65718275
0001e0 fc ca 5b bf 7f 81 f7 be 8b 09 92 3f 9d 5f aa 3f
       -0.85856605 -0.48340985 1.1409162 1.3310429
0001f0 b9 86 43 bf 5d 2b cb bf cc 18 87 3e 63 e7 bf 3f
       -0.76377445 -1.5872608 0.26386106 1.4992489
000200 5e 7b c5 bf 93 1c 2c 3f 38 a7 a2 3e f2 cb 77 3f
       -1.5428274 0.672311 0.31768203 0.9679557
000210 d8 cb dd bf 47 af 5d 3e fd fb 73 3f fb 88 7f bf
       -1.7327833 0.21648894 0.9530638 -0.9981839
000220 47 53 0e 3e b3 94 86 3f 35 34 04 bf 13 d5 21 bf
       0.13898955 1.0514129 -0.5164216 -0.6321575
000230 4c 40 84 3f 7a e3 4c bf 25 93 be 3f b6 88 59 bf
       1.0332122 -0.800346 1.4888655 -0.8497423
000240 ab 6f 3b bf 90 ff 03 3d ff 67 c4 3f 38 7d 47 bf
       -0.73217267 0.032226145 1.5344237 -0.77925444
000250 fa 38 2d 3f 5d b4 72 3f e9 7a 91 3d 34 d8 99 3f
       0.67665064 0.9480646 0.071035214 1.2019105
000260 d0 b0 a0 3e 89 73 0c 3f 46 72 fd 3f 64 d7 2d 3f
       0.31384897 0.5486379 1.9800498 0.67906785
000270 63 1e c2 3e 3d 48 3b 3f f1 6a 5e 3e e3 dd 1a bf
       0.37913808 0.731571 0.21720482 -0.6049482
000280 2f 58 b4 3f 47 5a 9d bf d0 f2 5d bf 14 66 87 3f
       1.4089411 -1.2293175 -0.8669863 1.0578027
000290 05 db d8 3f 8f a3 4b bf fd c2 f1 3f 21 f7 b5 3f
       1.694184 -0.79546446 1.8887631 1.4216043
0002a0 1e 89 65 3f 28 5a 36 bf 17 b0 99 bf e0 65 98 bf
       0.8966235 -0.7123132 -1.2006863 -1.190609
0002b0 6b ec 6c 3e e3 b4 00 3f f7 0c 36 3f 3d 7e a5 3f
       0.23137061 0.5027601 0.7111353 1.292915
0002c0 57 82 6c bd a0 78 75 3f 37 82 6a 3c c5 3a 52 bf
       -0.05774149 0.95887184 0.014313272 -0.82120925
0002d0 f4 be b3 bd 29 ab ba 3d ab b2 fa bd 93 8c 89 3d
       -0.08776656 0.091146775 -0.122411095 0.067162655
0002e0 cf 46 d0 be 7d 90 39 be b8 0e 88 bd f0 cb 8e 3d
       -0.40679023 -0.18121524 -0.066434324 0.06972492
0002f0 e6 85 af 3c 33 b5 27 bd ce 8b 6c 3d 91 c8 db 3c
       0.021426152 -0.04094429 0.057750516 0.026829036
000300 1c 1a 67 3e ec 76 07 3e b7 38 02 bf 75 66 e8 bd
       0.22568554 0.13228959 -0.5086779 -0.11347667
000310 2b f2 ba 3f 97 c4 af bd 36 64 6f be 9c e0 04 bf
       1.4605154 -0.085824184 -0.23378071 -0.51905227
000320 49 18 a0 3e 18 58 49 be a8 a6 e6 3d 46 af 05 3d
       0.31268528 -0.19662511 0.11262256 0.032637857
000330 4d ea db 3e c8 b8 7d 3e 2c b9 21 be ce cf 1a bb
       0.42952195 0.2477752 -0.15793294 -0.0023622396
000340 7b 86 0d 3e 17 1f c6 be 43 5a 4f 3e 9b 40 fe be
       0.13820831 -0.38695595 0.20249276 -0.49658665
000350 d7 6a 72 bf 73 37 b8 3d 63 8a 17 3f 8d 3c a6 bd
       -0.94694275 0.08994951 0.59195536 -0.08117018
000360 6c 76 82 be 85 aa d5 3d 10 76 3f bd c3 55 cd 3d
       -0.25480974 0.10432915 -0.046743453 0.100261234
000370 96 1c cb 3d 2c d8 79 3d 77 fe 1a 3d a0 01 db bc
       0.09917562 0.060997173 0.037840333 -0.026734173
000380 f8 2c 22 3c 7e 92 01 bd ec 07 56 be 5e 65 0e bd
       0.009898417 -0.031633846 -0.2090146 -0.03476464
000390 77 1b de 3c 34 a5 0b 3d 1a c7 b9 bc 52 ed e9 3b
       0.027112706 0.034093097 -0.022677947 0.0071388865
0003a0 73 d1 ee be 6d 89 ef be e5 bf 29 bf 3b cb c1 bc
       -0.46644172 -0.46784535 -0.6630843 -0.023656478
0003b0 fb fe a4 3d c6 5c f1 3d 68 01 10 be 44 92 f6 3e
       0.08056446 0.11785273 -0.14063036 0.48158467
0003c0 b8 1a 85 3d 85 27 0b bf 1c 01 0e bf f0 fb fb be
       0.06499237 -0.54357177 -0.5547044 -0.4921565
0003d0 0c eb 86 bc 7f 41 06 3f 75 52 5d bf 1e 8f 24 3f
       -0.016469501 0.5244369 -0.86453944 0.6428088
0003e0 a9 f2 14 bf f6 71 cc be ff 24 55 bd 04 30 32 3f
       -0.5818277 -0.39930695 -0.052037235 0.69604516
0003f0 88 e7 4d 3c a0 65 2d bf bf 4f f2 3e 74 b7 70 bf
       0.012567408 -0.6773319 0.47326466 -0.9402993

bias f4 [88]
000000 1e e2 81 3d e6 e9 6b bd d6 b4 ea bc a7 e4 95 3c
       0.063419566 -0.05759611 -0.028650682 0.018297506
000010 9f 3f 93 3d 09 25 80 3d cb 5a e6 3c 10 24 ab 3c
       0.07189869 0.06257064 0.028119465 0.02089122
000020 be f1 0c 3d cd 8a c9 3b 7a bc 17 3d 19 1f 96 3c
       0.03441023 0.0061505795 0.03704498 0.018325375
000030 32 6d 3e bd 50 01 87 3d 37 ab 91 3d c5 7b 83 bd
       -0.046490856 0.06592047 0.07112735 -0.064200915
000040 b7 1f ab bd 59 32 ce bb 47 f7 77 3d 56 3e 0f bd
       -0.083556585 -0.006292623 0.060538556 -0.034971558
000050 6e d4 a5 3d b8 ac 6c 3c 0c a5 8b bd 29 42 45 3d
       0.08097158 0.014445476 -0.068185896 0.0481588
000060 f0 c7 91 bc 8a 9b 82 3d e6 95 8b bd 48 23 58 bd
       -0.017795533 0.06377323 -0.068157 -0.05276802
000070 4b ea 55 bd 12 52 c7 bc e1 58 d9 3c cc 34 5d 3d
       -0.052225392 -0.024331126 0.026531639 0.05400543
000080 2b c7 2b 3b 61 b0 11 bc eb 3b 60 3a 5f 38 2f bd
       0.0026211243 -0.00889215 0.00085538503 -0.04277837
000090 a4 73 41 3d 0a 1d 2e bd e8 1e 50 bd f3 13 1d 3c
       0.047229424 -0.042508163 -0.050810724 0.009587276
0000a0 44 dd d2 3c df 57 ad 3c 00 53 80 bd f9 28 3a bd
       0.025740273 0.021160064 -0.06265831 -0.04544923
0000b0 52 8b 02 bd b7 85 2e 3d b1 3f c3 bc 5c df 82 bd
       -0.031871147 0.04260799 -0.023834081 -0.06390259
0000c0 a2 13 cf 3c 40 60 56 3d 16 99 73 bd 11 d7 3c bd
       0.025277916 0.052337885 -0.059472166 -0.04610354
0000d0 6b d7 34 bd 91 9b 07 bd 23 31 54 bd af c7 9f bc
       -0.04415075 -0.033107344 -0.051804673 -0.019504396
0000e0 90 3d 64 bd ca fd 01 3b cd 10 2d bd a7 3b b4 bc
       -0.055722773 0.0019835108 -0.04225235 -0.0220011
0000f0 82 9f 04 bd f8 57 49 3d 12 a9 a3 3d 91 2a 8f bd
       -0.03237868 0.04915616 0.07991232 -0.06990541
000100 ab 06 87 3d 14 f1 c9 3d 5a 8b 3b 3d 93 f1 0f 3d
       0.06593069 0.09860435 0.045787193 0.035142493
000110 b4 0e 68 bc 9c b3 5e 3d 79 1f f1 3c cf 90 51 bd
       -0.014163662 0.054370508 0.029433953 -0.05116349
000120 a2 85 90 3a f4 c6 79 bd bc 67 3a 3d 39 66 c5 bd
       0.0011026154 -0.060980752 0.045509085 -0.09638638
000130 0f 91 9c bc 7e 9d 3c 3d d0 6e 6e ba 24 52 a4 3d
       -0.019112138 0.046048634 -0.0009095492 0.080234796
000140 de 47 4e bc 14 94 a4 3d 53 9b 3b bd 6d ff 0a 3d
       -0.012590377 0.08036056 -0.045802426 0.033935
000150 cc 06 a9 bd a5 8c 07 bd ee a1 36 bd 1b e4 56 3c
       -0.082532495 -0.033093113 -0.044588022 0.013115908

weight f4 [44, 88]
000000 8d 99 a9 bd b6 3d 91 be d6 07 d4 bd aa ca 61 3e
       -0.082812406 -0.28367394 -0.10353057 0.22049966
000010 f5 23 4b 3d 46 3d a1 3c a1 7d d4 bc 5b 72 7e 3e
       0.04959484 0.019682538 -0.02593881 0.2484831
000020 b7 3d 0d 3e d7 2a 33 3e 7a fc 60 3e b0 72 a4 3e
       0.13793074 0.17496811 0.21971312 0.3211875
000030 8a 78 be bd ce f6 d5 bd 19 26 6c 3e e1 a8 07 3e
       -0.09300335 -0.10447465 0.23061408 0.13248016
000040 bd 61 1a be d5 0e 97 be 02 d7 08 be 30 d8 6f 3e
       -0.15076347 -0.29503503 -0.13363269 0.23422313
000050 dc 6e 19 3e be 59 4b 3e 30 d0 6e be 48 d2 76 bd
       0.14983696 0.19858453 -0.23321605 -0.060259134
000060 bb 70 67 3e e5 10 0d bd 02 e6 11 be bd 35 5a be
       0.22601597 -0.03443994 -0.14247897 -0.21309562
000070 39 80 86 be 06 8a 49 be ce 8c 33 3e 30 3b f5 bc
       -0.262697 -0.19681558 0.17534181 -0.02993545
000080 9d 52 97 3e 23 24 9c be 4d c1 2e be a9 b7 a9 3c
       0.29555216 -0.3049632 -0.17065926 0.020717459
000090 a2 31 3f 3d 08 0c 42 3e 5b a4 86 be c6 da 84 3e
       0.046678193 0.18949902 -0.26297268 0.2594816
0000a0 ff cc b6 3d c1 d5 55 3e 45 59 82 be d8 ee b3 3d
       0.08925819 0.20882322 -0.25458732 0.0878579
0000b0 6e 7e 8d be 87 84 d1 3d 4b e5 d1 3e 7f ba 03 be
       -0.2763552 0.10230356 0.4099525 -0.12864111
0000c0 7f a8 96 3e 38 9c 27 be d1 27 35 be 5c 7a 84 3d
       0.29425427 -0.16368186 -0.1769097 0.06468651
0000d0 06 de 29 3e 82 a5 57 3d 4c b5 06 be 21 5b 7d be
       0.16588601 0.052648075 -0.13155097 -0.24741794
0000e0 6c 0c 2b 3d da 0f 0f be 23 68 2c be b9 e2 5f be
       0.041759893 -0.1397089 -0.168366 -0.21863832
0000f0 29 e4 9c 3e 5d 22 dd 3d 42 81 1a 3e 46 18 42 38
       0.30642822 0.1079757 0.1508837 4.627581e-05
000100 02 8d 71 3e 9d 39 26 3e ec 4a 80 3d fb 32 af bc
       0.23588946 0.16232915 0.0626429 -0.021386614
000110 aa 21 85 be aa 65 29 be 6a 1c 6b 3e 2e 35 35 bd
       -0.26002246 -0.16542688 0.22960058 -0.04424017
000120 4b 73 5c 3e d4 dd 9e bc d2 99 40 3e ee 81 4a bd
       0.21528356 -0.019392885 0.18808678 -0.049440317
000130 93 e8 25 3e 09 cd bd bc fd d2 a0 bd ce 87 c8 3c
       0.16202001 -0.023169057 -0.07852743 0.02447882
000140 09 df f5 bd dc bf 3d 3e c8 43 c3 bd 11 f4 8a 3e
       -0.12005431 0.1853022 -0.095344126 0.27139333
000150 25 12 51 bd fa 74 84 be 29 f8 60 bb 5a 75 95 bd
       -0.051042695 -0.25870496 -0.0034327602 -0.07297774
000160 50 77 e3 3c d3 4b 80 bd 83 28 cb 3d e6 28 c7 bd
       0.027766854 -0.06264462 0.09919836 -0.09724598
000170 d7 d6 cc 3e a3 ab e3 3d 90 c5 23 bd 25 3f 40 3d
       0.4000766 0.111167215 -0.039983332 0.04693522
000180 31 1f 57 3d a9 ac ee bc 79 a2 3b 3d 00 a6 60 bd
       0.05251998 -0.029135065 0.045809243 -0.05484581
000190 e2 35 04 3e ca 14 06 3f b0 f9 61 bd 26 49 eb be
       0.1291118 0.5237547 -0.05516976 -0.45954245
0001a0 33 4c 8e be 86 54 1e bc 14 f6 8e 3d 19 6d 14 bf
       -0.2779251 -0.009663707 0.069805294 -0.5797897
0001b0 96 f1 8e 3e a2 f6 01 be e9 45 ab 3d 53 e8 e2 3e
       0.2791869 -0.12691739 0.08362944 0.44317874
0001c0 3e 6f 25 be f6 b3 fe 3e fd 94 88 3d 4b 1a 60 bb
       -0.16155717 0.49746674 0.06669042 -0.003419536
0001d0 85 3d 55 3c b9 e9 90 3d b6 01 2e 3d da b4 96 3e
       0.013015156 0.07075829 0.0424821 0.29434854
0001e0 1e 4b 00 be 20 60 88 bc ab 6f 59 3d 5d b3 dd be
       -0.12528655 -0.016647398 0.05308501 -0.43300906
0001f0 ed 32 cc 3d ff a0 2c bf ae a2 fa 3b 2f 88 17 3c
       0.09970651 -0.6743316 0.0076487875 0.009248777
000200 e7 b8 f6 bd 6c ae ae 3c a2 40 b0 3c 8b c0 14 be
       -0.12046986 0.021323405 0.021515194 -0.14526574
000210 39 d7 aa bc 5d 33 d6 bd 9c 9e 4d bf 06 47 86 3d
       -0.02085458 -0.104590155 -0.80320144 0.065565154
000220 de 53 11 be 60 81 16 3e ce 91 a3 3d f2 0f 69 be
       -0.14192149 0.1469779 0.079867944 -0.22759989
000230 8f 4f 1f bd b1 10 40 be 97 50 d9 bc 43 5f 6e 3d
       -0.038894232 -0.18756367 -0.026527686 0.058196317
000240 f5 c4 db bd 07 7c 4c 3e ed b9 4d 3d f7 1a f7 3d
       -0.10730926 0.19969188 0.05022614 0.1206569
000250 cf ce 42 bf 23 a6 07 bd d0 d5 f7 bc 88 f8 d3 be
       -0.76096815 -0.033117425 -0.030253321 -0.41400552
000260 d6 6f c8 bd d4 b0 7d 3e cb 7b 85 3c 7f 24 cf 3d
       -0.09786956 0.24774486 0.01629438 0.10114383
000270 d1 b9 12 3d 34 39 31 3e bb a7 e9 bd 30 74 a6 be
       0.03582174 0.17306978 -0.11408945 -0.3251052
000280 8f ff 2a be 8c a9 df be 30 1d cc bc 32 00 4b be
       -0.1669905 -0.43684042 -0.024916261 -0.19824293
000290 bc b2 0e bf 9c c1 d1 3c de ed aa 3b 70 1d 8a 3e
       -0.55741477 0.025605015 0.0052163443 0.26975584
0002a0 88 ab c3 3c bd 3f ba bd 36 4a 6e bd ae 5d b3 3c
       0.023885503 -0.09094188 -0.05817624 0.021895256
0002b0 8b ce 90 be 0f b5 ee bc ac 7c 12 bf f4 66 4f 3e
       -0.2828258 -0.02913907 -0.57221484 0.20254117
0002c0 32 65 de bc d9 05 dd 3d e5 16 08 3e 17 1b 47 be
       -0.027147863 0.10792131 0.13289984 -0.19443928
0002d0 c5 e0 01 3d d9 56 e9 3d 58 94 0b 3e 53 99 e2 bd
       0.031708498 0.11393518 0.13630807 -0.110644005
0002e0 29 02 e2 bd a6 71 51 be d4 67 78 bd 58 27 a4 bd
       -0.11035568 -0.2045351 -0.060645893 -0.08015317
0002f0 29 a4 f7 3d d6 70 91 3e 38 0d 18 be c4 87 0b be
       0.12091858 0.284064 -0.14848793 -0.13626009
000300 94 17 cc bb 09 7f 48 3e 99 36 78 3d bb ef 3b be
       -0.0062283967 0.1957971 0.060598943 -0.18353169
000310 c0 fd c0 bb 83 17 1e be 87 7b b6 3d 4b af 10 3e
       -0.0058896244 -0.15438657 0.0891028 0.14129369
000320 6f 90 f8 3c 50 bf d8 3b ab 5a 55 3e 36 b5 17 3e
       0.030342309 0.006614603 0.20835368 0.1481522
000330 ba 0a 21 3e 8a 7d 6e 3c 4f 61 23 be 53 e6 1a 3e
       0.15726748 0.014556298 -0.15955089 0.15126924
000340 3a 2b 8d be 8e 70 b8 3d 44 d2 5c 3e 08 6c 18 be
       -0.27572042 0.09005843 0.21564585 -0.1488496
000350 ee b6 82 3d fa 0e 58 be 6f 68 32 3d 8f 71 5c be
       0.06382547 -0.21099463 0.043556627 -0.21527694
000360 97 0d 03 be 8f 54 55 be 10 5c 9c 3d 0e e0 c8 bd
       -0.12798153 -0.20833038 0.07634747 -0.0980836
000370 53 58 48 3e 11 f0 f5 bd 05 d3 1d bf a1 b9 a0 3d
       0.19564943 -0.1200868 -0.61650115 0.07847906
000380 4a 3e a7 bd 21 3d 4f bc bd 6d 4e 3e 9f fe 1d bd
       -0.081661776 -0.012648852 0.2015905 -0.038572904
000390 76 23 12 3d 0b 91 db bd f4 cc 2c 3e e8 1d db 3d
       0.03567835 -0.10721024 0.16875058 0.106990635
0003a0 f0 91 bd bd fd be 8e 3e 1b 3f 37 3e 89 01 7e 3d
       -0.09256351 0.27880087 0.17895167 0.062013183
0003b0 a4 0f e5 be be cf bf bd f2 bc 30 be 69 b5 ad bd
       -0.44738495 -0.093657956 -0.17259577 -0.08481867
0003c0 58 7f 93 bd d6 e4 79 3c b1 ee 6f bd 6c a4 1b 3e
       -0.07202023 0.015252313 -0.058577243 0.1519944
0003d0 b2 71 0d 3e 2c 45 0a 3c 1c eb f9 bd 5f 04 36 be
       0.13812903 0.008439343 -0.12203047 -0.17775105
0003e0 cf cb 27 bd b7 df be bd ca ce e1 bd 53 71 a9 3d
       -0.04096585 -0.09320014 -0.1102577 0.08273568
0003f0 fb cb d7 be d6 96 48 bd 69 63 41 3d 50 3e 30 3d
       -0.42147812 -0.048971973 0.047213946 0.043028176

bias f4 [44]
000000 40 47 56 3e 85 0d 22 3e b3 69 47 bd 83 b1 c3 bc
       0.20925617 0.1582547 -0.048684787 -0.023888355
000010 23 04 c4 bd 11 51 40 3e 4e 85 68 3e c9 15 f8 3c
       -0.095711015 0.18780924 0.22707102 0.030283825
000020 81 09 1d 3e cd 5a 9e be 68 9b ae 3e 4d 13 84 bd
       0.15335657 -0.3092865 0.3410294 -0.06448994
000030 a1 8d c2 bd a0 04 1e be e3 9e 15 3e 69 97 9a 3d
       -0.0949967 -0.15431452 0.14611392 0.075484104
000040 26 a6 d1 3b e6 c6 d0 3d 07 06 ca 3d ea 8c d5 bd
       0.0063979803 0.10194187 0.09864431 -0.10427268
000050 3d d9 5b be 67 90 9b 3d bd 21 12 3e 5d db ff bd
       -0.21469589 0.07595902 0.14270683 -0.12493012
000060 86 5b 42 3e 2f f2 a0 3d 14 f7 5d be 02 87 40 bd
       0.18980226 0.07858693 -0.21676284 -0.047003753
000070 6d 5b b8 bd 36 35 8b be 49 47 29 3e 7d d4 1e be
       -0.09001813 -0.27189034 0.165311 -0.15510745
000080 4d 18 47 3e e5 82 e2 3d 45 cf 65 3d 32 f4 0d 3e
       0.19442864 0.110601224 0.05610587 0.13862684
000090 84 c2 7d 3e 5f 19 c7 bd 8a 58 8a 3d 84 b0 33 3e
       0.24781233 -0.09721636 0.06755169 0.17547804
0000a0 2e c0 20 3e 65 73 35 be e3 12 36 be b4 89 17 3e
       0.1569831 -0.17719801 -0.17780642 0.14798623

weight f4 [22, 44]
000000 24 d2 c2 3e e7 86 77 3d 4f af e0 bd df d1 a2 bd
       0.3805095 0.060431387 -0.109709375 -0.07950186
000010 5e 27 a1 bd ea 73 62 bd 7e 6c d7 3e 33 92 e6 bd
       -0.07868837 -0.055286326 0.4207496 -0.11258354
000020 ff 2b c8 3e b0 98 b2 bd 64 2d b2 3d d2 f7 04 bd
       0.39096066 -0.08720529 0.08700064 -0.032462902
000030 aa b4 6a 3c 6f b7 8b be 8c 71 9f 3e be dd e2 bb
       0.0143253 -0.27288386 0.31141317 -0.0069234064
000040 8b 27 3d 3d 37 9d b6 3e af ee aa bb 24 9d c6 3c
       0.04618029 0.3566682 -0.0052164416 0.024244852
000050 6c 95 68 3c 3f 9a 2b be d1 e7 5d 3d 14 fd 86 be
       0.014195781 -0.16758059 0.054176155 -0.26364958
000060 43 a3 88 3e a9 b5 ad 3e 61 1b 58 3c be 46 95 3d
       0.2668706 0.33927658 0.013190121 0.072888836
000070 a0 7c 49 be 7e 4b f5 bd 35 3c d8 3e 1b d2 91 be
       -0.19676447 -0.119772896 0.42233434 -0.2848061
000080 5b 12 de 3e 9f c9 39 3e 7a ba c4 bc ee a5 2b bd
       0.4337338 0.18143319 -0.0240147 -0.04190629
000090 8a 62 c5 3e fb 43 82 bd 49 81 9e 3e d3 8c 4b 3d
       0.38551742 -0.063606225 0.30958012 0.049694847
0000a0 f9 96 ca 3e 14 82 30 be f0 02 22 be ca bb c4 3d
       0.39568308 -0.17237121 -0.15821433 0.096061304
0000b0 94 5b bb bd 1e 1b 70 3d 84 f5 49 3e 81 2a 01 be
       -0.091483265 0.05861961 0.19722563 -0.1261387
0000c0 27 d1 97 be af 86 1a 3d 83 36 85 be 10 34 7c 3e
       -0.29651758 0.0377261 -0.26018152 0.24629235
0000d0 ea 06 9c be ce 10 31 bd 4c b1 a1 3d 5a a3 32 be
       -0.30474025 -0.043228917 0.07895145 -0.17445126
0000e0 57 97 5c be 09 fc be 3e fb fd 58 bd 75 b9 a3 3e
       -0.21542107 0.37301663 -0.05297659 0.3197743
0000f0 f9 2e f6 bd 25 8d 91 be d9 5f 90 3e 71 f1 99 bd
       -0.12020678 -0.28427997 0.28198126 -0.075167544
000100 30 81 86 bd 2b ba 98 be de 8f 04 be db 3f c5 3d
       -0.06567609 -0.29829535 -0.12945506 0.0963132
000110 2a fd 99 bd 00 cd 70 be c4 68 f3 bd e4 e9 e8 bd
       -0.0751899 -0.23515701 -0.11885217 -0.11372736
000120 29 f2 6d be ab 85 a9 3d 5e 2b 59 be 95 35 7b 3e
       -0.23236908 0.08277448 -0.2120795 0.24532159
000130 51 f7 f1 bc 7f da 1c be 1e 0f 39 3e 69 4d 7c 3e
       -0.029536875 -0.15317725 0.18072173 0.24638905
000140 57 08 7c be 30 e0 52 be 39 d3 aa be a6 02 3b be
       -0.24612556 -0.20593333 -0.33364275 -0.18262729
000150 30 80 75 be 51 67 94 3e 00 59 9b 3d 14 be e8 3d
       -0.23974681 0.28985074 0.07585335 0.113643795
000160 7f 54 82 bd 85 d6 94 3f 67 55 7b bd d3 48 4b bf
       -0.063637726 1.1627966 -0.061360743 -0.79407996
000170 b6 49 d4 be 60 0b 7a 3f 80 f1 39 3e b3 a2 46 3f
       -0.41462487 0.97673607 0.18158531 0.7759201
000180 0c d3 48 3d 07 ee 33 bf 2f 95 91 3f 61 dc 33 bf
       0.049029395 -0.70285076 1.1373652 -0.70258147
000190 95 c5 20 be 17 fe 23 3e 93 93 b0 3d 31 1c dc 3e
       -0.15700372 0.16014896 0.086218975 0.42990258
0001a0 a3 06 c7 be 9f c6 bf 3c a8 18 cf 3e cf 5f 49 bf
       -0.3887225 0.02341014 0.404485 -0.7866182
0001b0 9c 7f 7c bf 23 13 44 bd 4a e7 ac 3d a3 d9 a1 bd
       -0.98632216 -0.047869813 0.084425524 -0.07902839
0001c0 16 69 b9 bc 62 9f 93 bd 1b 01 68 bf 5a 98 e6 be
       -0.022633117 -0.07208134 -0.90626687 -0.4503811
0001d0 0b 2b d9 be fc 14 1c bf 2f cc 74 bd 1c 2a 1d be
       -0.42415652 -0.6096952 -0.059765037 -0.15348095
0001e0 6b f6 55 3c 57 1a a7 bc 4c 09 20 3f 62 33 f8 3e
       0.013059239 -0.020398302 0.62514186 0.48476702
0001f0 cc 88 7c 3d cb 55 14 bf e1 c6 35 bb 58 7a d3 bd
       0.061653897 -0.5794341 -0.002773695 -0.103260696
000200 a7 e4 19 bc 78 68 eb 3d bb 80 7d 3d d4 c3 fb 3e
       -0.009392894 0.11494535 0.061890345 0.49172843
000210 15 98 04 3d b4 53 20 3f 47 3c 1d be 2d 89 0e bf
       0.0323716 0.6262772 -0.15355025 -0.55678064
000220 e3 c3 75 be 71 09 62 3f 69 5d a5 bb 3f 3c b3 3e
       -0.24000506 0.88295656 -0.0050465357 0.35006902
000230 99 02 0d 3e af ed 62 bf 4d 16 18 3f db ef e2 be
       0.13770522 -0.88643926 0.5940903 -0.4432362
000240 3a 82 9d be 09 ee 05 be 0e ef e7 bc a9 6a 13 3f
       -0.30763417 -0.13079084 -0.028312232 0.57584625
000250 f8 7a a5 bf b1 91 b6 3d 4b dd 02 3f 17 59 e7 be
       -1.2928152 0.08914507 0.51118916 -0.45185158
000260 45 d9 89 bf 6a bf 18 3d 25 2c 25 3e 0f 1a 2e be
       -1.076943 0.03729192 0.16130121 -0.17002128
000270 87 14 b3 bd ee 71 7f 3c d3 c4 1a bf 89 1b c8 bd
       -0.0874415 0.015591128 -0.6045658 -0.09770877
000280 70 a1 a4 be f7 f4 28 bf 23 5b f5 3d 5e 97 92 3c
       -0.32154417 -0.65998787 0.119802736 0.017894443
000290 ec ba 23 3e 66 bf c2 3d dd 4c d9 3e 10 57 c6 3e
       0.15989274 0.095091626 0.42441455 0.38738298
0002a0 d0 8b 0d 3e 0d f0 c0 be 71 86 88 3d f7 48 5e 3e
       0.13822865 -0.37683144 0.06666268 0.21707521
0002b0 1f 50 3e 3e 22 d5 d9 bd 82 fc 5e be 73 94 e4 3e
       0.18585251 -0.10636355 -0.21776012 0.44644508
0002c0 aa 71 d3 3c 31 e1 f4 3f 60 ce 0e 3e 37 a0 a6 bf
       0.025811035 1.9131223 0.13945913 -1.3017644
0002d0 0d d2 16 bf a8 20 99 3f d4 91 53 3b 76 96 5b 3f
       -0.5891426 1.1963091 0.0032282965 0.8577646
0002e0 69 f4 38 be 67 ed 4b bf 34 da 2c 3f fb 29 89 bf
       -0.18061985 -0.7965912 0.6752045 -1.0715936
0002f0 4d d9 81 be ba ba 3d 3e 7e fc 4a be 70 5d 3c 3f
       -0.253611 0.18528262 -0.1982288 0.73580074
000300 ed 55 77 3f 1d a5 cf bc ef bf 1a 3f 81 13 83 bf
       0.9661549 -0.025347287 0.6044912 -1.0240327
000310 00 b2 5d bf f3 f2 22 3f 6d f0 44 bc 38 02 30 3e
       -0.8659973 0.6365196 -0.012020213 0.17188346
000320 8f e1 c6 bd 4f bf a8 bd 86 be 97 bf 8c cf 17 bf
       -0.09710991 -0.08239614 -1.1855018 -0.59301066
000330 2c 90 0d bf cc 78 34 bf 98 99 ed 3d 21 9b 3d bd
       -0.55298114 -0.7049682 0.11601561 -0.04629052
000340 48 e3 eb 3c c1 45 80 bd 00 64 48 3f d5 c8 5e 3f
       0.0287949 -0.062633045 0.7827759 0.87025195
000350 00 c6 68 bd 04 55 34 bf eb 3c 58 be bb de 1f be
       -0.056829453 -0.70442224 -0.21116988 -0.15612309
000360 9c 21 21 be 5e 48 eb bd 8e a1 80 3d 73 65 22 3f
       -0.15735477 -0.11488412 0.06280814 0.6343605
000370 c3 43 bb be 18 00 9a 3d 7d f0 a7 bc d6 d2 a1 bd
       -0.36575136 0.07519549 -0.020500416 -0.07901542
000380 94 41 2f bd 21 03 1b be 8d ee 66 be 0c e0 8a bd
       -0.04278715 -0.15137912 -0.22551937 -0.06781015
000390 e4 51 85 be 41 ca 88 3c 5a e3 19 be d3 50 4e 3d
       -0.2603904 0.016698005 -0.15028134 0.05037005
0003a0 8f 4c 25 bd 49 e2 28 3e 8c 1f 6b be 82 24 31 3d
       -0.040356215 0.16492571 -0.22961253 0.043247707
0003b0 5e 8a 8f 3e 21 fc 4d be 86 c4 b7 3d ae ef 7c 3d
       0.28035253 -0.20115711 0.08973031 0.061752014
0003c0 f3 52 a9 3c ae 4d 3f 3e 5a 2b 92 be 46 ce a0 3e
       0.020669436 0.18681976 -0.285487 0.31407374
0003d0 de cd 97 be f5 5a c4 be e8 12 f4 3d c7 48 c1 3d
       -0.29649252 -0.38350645 0.119176686 0.09437709
0003e0 6b e2 d2 bd 6e c0 0a 3e dd 9b cf be b2 ba ca 3e
       -0.10297092 0.13549969 -0.40548602 0.39595562
0003f0 4f f5 98 be 29 67 f9 be c2 f2 0d 3d d1 85 b3 bd
       -0.29874656 -0.48711517 0.03465534 -0.08765758

bias f4 [22]
000000 04 32 ab 3e 67 59 1b be 83 1d 53 3e b8 b1 a5 3e
       0.33436596 -0.15170823 0.20616727 0.3236215
000010 0c c4 6e 3e 89 2e 6c be 77 62 17 3e 84 de de 3e
       0.23316973 -0.23064627 0.14783655 0.4352914
000020 34 90 0a 3e dc d4 82 be 70 13 77 3e cf 9d 75 be
       0.13531572 -0.25553024 0.24128509 -0.2398598
000030 5e 12 61 be 72 19 8c 3d 50 4c 98 3e 81 c8 2b bf
       -0.21979663 0.06840791 0.29745722 -0.6710282
000040 8c 22 18 be b8 82 ad bb fe c5 9a 3e c1 d3 ca 3e
       -0.14856929 -0.005295124 0.3022918 0.3961468
000050 67 f3 59 3e ad 1a ba be
       0.21284257 -0.36348477

weight f4 [11, 22]
000000 d3 b8 ea be 7c b3 85 bf 02 65 a7 3d 1c 15 9a 3e
       -0.45844135 -1.0445399 0.081735626 0.3009423
000010 83 c6 85 bf f1 14 3d 3f 27 6d 97 3f e8 fc 1b c0
       -1.0451206 0.7386008 1.1830186 -2.4373112
000020 d7 37 25 3e 3f ae 0a 40 42 10 0a bf b9 6c 26 3f
       0.16134582 2.1668851 -0.5393106 0.6500965
000030 bd 0f 67 bd c2 11 82 bd 0c 94 a2 be 26 1a 70 bf
       -0.056411494 -0.06351043 -0.31753576 -0.937899
000040 c8 11 a8 3f 8b 3a bf be 6d bb 20 bf 99 76 24 be
       1.3130426 -0.37349352 -0.6278599 -0.16060866
000050 a0 35 b5 be 40 2a 2d 3f 98 58 28 bf cf 5b 1f bf
       -0.35392475 0.67642593 -0.65760183 -0.62249464
000060 eb fc d0 3e 33 ea 9d 3f 7f d9 49 bf 7c 47 65 3f
       0.4081796 1.2337097 -0.788475 0.895622
000070 21 00 60 3f 6b b4 77 bf 73 5f 4d bd 70 55 83 3f
       0.87500197 -0.9675967 -0.050139856 1.0260448
000080 a9 df 4c bf 02 de 22 3f c1 ac b6 3e ae 15 03 3d
       -0.8002878 0.6362001 0.35678676 0.032003097
000090 9d b0 24 bf 75 8d a0 bf 28 f4 77 3f 11 ac 53 bf
       -0.6433199 -1.2543169 0.9685693 -0.8268443
0000a0 51 16 eb be 30 1d c6 be 11 e2 5f bf 03 6f 72 3f
       -0.45915464 -0.38694143 -0.87454325 0.9470064
0000b0 51 e9 98 3e 8a 15 25 bf 54 57 9c bf 31 14 a5 bf
       0.29865506 -0.6448599 -1.221415 -1.2896787
0000c0 3f e4 66 bf 3f 2f b6 be cf 05 16 3f 27 c4 d6 3d
       -0.90192026 -0.3558292 0.58602613 0.10486632
0000d0 ca 9f ac bf 02 0a 99 be 23 ca 30 bf 93 79 f2 be
       -1.3486264 -0.29890448 -0.69058436 -0.4735838
0000e0 59 e0 0a bf 21 f0 bc bf dc 92 05 3f 9f e6 a8 3f
       -0.5424858 -1.4760782 0.52177215 1.319538
0000f0 f7 02 79 3e a3 d4 3f be 8c ff 94 3e 03 af 6d 3e
       0.24317537 -0.18733458 0.29101217 0.23211293
000100 a5 b9 95 bf d0 c5 24 be ec d3 fd be 93 4f 69 bf
       -1.1697279 -0.16091084 -0.49575746 -0.91137046
000110 0d 33 94 3f 9f ca 8c 3f 8e c3 68 bf 48 72 43 3f
       1.157808 1.0999335 -0.9092339 0.76346254
000120 30 70 58 3f 9f 64 81 bf d1 12 57 3e ba 53 6b 3f
       0.84546185 -1.0108832 0.21003272 0.9192463
000130 73 e3 03 bf 90 ee 38 3f 5d e0 b8 3e 7d 6d b9 3d
       -0.51518935 0.7223902 0.36108676 0.09054086
000140 ab e0 24 bf c2 c2 9f bf 73 8f 93 3f 1b 80 49 bf
       -0.64405316 -1.248131 1.1528152 -0.787111
000150 c9 8d f8 be 79 c6 d1 be e0 e0 1c bf a7 ca 39 3f
       -0.48545673 -0.40971735 -0.6128063 0.7257485
000160 6d ef 46 3f e4 f9 1e 3f ff d5 60 bf e5 fa 05 c0
       0.77709085 0.6210005 -0.8782653 -2.0934384
000170 84 10 d6 3f b5 de 30 bf 7f 88 63 bf 3e fd a4 3f
       1.672379 -0.69089824 -0.8888015 1.2889783
000180 b5 c7 96 bd 22 dc 9c bf 83 b9 82 3f 79 0c 44 bf
       -0.0736231 -1.2254679 1.0212864 -0.7658153
000190 43 f4 ca be 0d a6 a0 3d 8d 2f 02 3f 5e 5a 2b 40
       -0.39639482 0.07844172 0.50853807 2.6773906
0001a0 cc c5 02 c0 a6 9f 43 3f 54 3d b4 3e 52 18 32 3f
       -2.0433226 0.7641548 0.3520304 0.6956836
0001b0 83 79 5e 3f 6e 30 3f bf d9 1b 19 bf f0 6a 57 3f
       0.8690416 -0.7468327 -0.5980812 0.8414755
0001c0 4d b5 34 3f 55 2d f4 3e 0c 25 20 3f ef ff ca 3e
       0.70589143 0.47690836 0.6255653 0.39648387
0001d0 44 5f 5d bf e0 e0 f4 be 2a b1 11 3f c9 35 0c 3f
       -0.8647349 -0.47827816 0.56910956 0.5476957
0001e0 5a 83 2b 3f 46 e1 a5 3e 81 ee ea 3e ab ac 1b 3f
       0.669973 0.32398432 0.4588509 0.60810345
0001f0 6b b2 ae be 94 51 41 bf cb 61 36 bf d7 32 55 3f
       -0.34120497 -0.75515103 -0.7124297 0.832807
000200 e3 6f 41 bf 47 5a 22 bf c6 e6 2b 3f 8f c9 19 3f
       -0.7556135 -0.63419 0.6714901 0.6007318
000210 ea e7 34 bf 6b e6 2c 3f ee 11 a1 3e 74 fd 1f 3f
       -0.7066637 0.6753909 0.31458992 0.62496114
000220 ae 6c 16 3f a5 89 cf 3e 3b ef 65 bf bf 81 0c bf
       0.5875958 0.40534702 -0.8981816 -0.54885477
000230 b1 a0 19 3f ea 19 33 3f 2a 35 96 3e da 4c ff 3e
       0.6001082 0.69961417 0.29337436 0.4986332
000240 73 df c4 bd 26 a0 db 3e 9e a9 dc be 8d 1a 0b bf
       -0.09612932 0.4289562 -0.43098158 -0.5433739
000250 18 a4 c8 be 43 73 ad 3e 53 5a 2a bf 69 92 1c bf
       -0.39187694 0.33877 -0.66544074 -0.61160904
000260 44 ef 72 3e a2 5b 21 3f 09 23 a4 be 64 eb 2f 3f
       0.23724085 0.63030446 -0.3205798 0.6871855
000270 a7 86 fb 3e e5 b9 de 3e b3 55 1d 3f 7f 8c 28 3f
       0.4912617 0.435012 0.6145889 0.6583938
000280 4c da f3 be cf f2 ef be 57 42 e5 3e b1 3a ce 3e
       -0.47627485 -0.46864936 0.44777176 0.40279153
000290 77 7e 18 3f c5 ca 28 3f 3e b5 14 3f e8 2e 26 3f
       0.5956797 0.659344 0.58089054 0.64915323
0002a0 e7 fa 2d bf 3f 1e e6 be cf 01 17 bf eb d8 1b 3f
       -0.6796097 -0.4494495 -0.58987135 0.60877866
0002b0 b2 0b 37 bf 95 b8 ee be e8 0c f2 3e b0 90 0e 3f
       -0.7150222 -0.466252 0.47275472 0.55689526
0002c0 b3 8f 50 3e af 17 02 bf c7 40 28 bf 9d 13 58 bf
       0.20367317 -0.5081739 -0.6572384 -0.8440493
0002d0 2e 0d 22 bf a9 fb a3 be 4b 19 26 3f 5d 26 b4 3e
       -0.6330136 -0.3202794 0.64882344 0.3518552
0002e0 ce 9b 5c bf 55 6b ac be 67 1a 5e bf b6 8d 1d bf
       -0.8617524 -0.33675638 -0.86759037 -0.6154436
0002f0 0c 4b 11 bf ee cd 7f bf 93 45 d6 3e 6e 52 21 3f
       -0.5675514 -0.999236 0.41849956 0.630164
000300 78 91 e7 3e 2b 2d 4e bf 14 de fe 3e 7a 4a 81 3e
       0.4522817 -0.8053767 0.49778807 0.25252134
000310 53 1e 2e bf a5 cf 1a bf b5 b1 d2 3e b2 9b 4b bf
       -0.6801502 -0.6047309 0.41151205 -0.7953445
000320 0f 74 86 bf 1d b1 66 bf a8 2d 0a bf 4f f3 c0 be
       -1.0504168 -0.90114003 -0.53975916 -0.3768563
000330 16 6d 58 3f cc 34 2d 3e e0 26 13 bf 64 1b a8 be
       0.8454145 0.16914672 -0.57481194 -0.32833397
000340 8c 77 72 bf 08 c1 52 be 19 0f be be bb 20 95 bf
       -0.94713664 -0.20581448 -0.37120894 -1.1650614
000350 d0 52 e4 3e b8 c4 7b 3f 34 55 eb 3e 51 4a 75 bf
       0.4459443 0.98347044 0.45963442 -0.9581652
000360 e8 ee 9a 3e f3 76 8a 3e 8d 0c 7f bf 5e 75 ae bd
       0.30260396 0.27043876 -0.99628526 -0.0851848
000370 74 19 7b 3f 40 a6 d3 3e 9a 7a 7b be a5 fc 3a bf
       0.98085713 0.41337776 -0.24558488 -0.73041755
000380 3c a2 02 3f bb 90 aa bf 5b 3e e7 be 14 6b 92 3f
       0.510288 -1.3325418 -0.4516476 1.1438928
000390 e8 36 56 be 10 55 73 bf 70 ff 39 3e 4d 78 70 bf
       -0.20919383 -0.9505167 0.18163848 -0.93933564
0003a0 77 03 49 bf 91 a9 04 bf 7d 40 93 3f 1b 26 85 3f
       -0.7852091 -0.5182124 1.1504055 1.0402254
0003b0 8b 8a 5e bf 9e 45 89 bc b1 76 97 3f f9 23 55 3f
       -0.8693015 -0.016756829 1.1833097 0.83258015
0003c0 05 3d 8e 3e 29 36 8e bf
       0.2778093 -1.1110278

bias f4 [11]
000000 a6 8e 79 bf 25 7f 84 bf 0f 94 3f be 7d e9 7a bf
       -0.9748329 -1.0351301 -0.18708824 -0.98012525
000010 62 3c a4 3f 09 3d 35 be 00 eb c9 be d8 f2 2b be
       1.2830927 -0.17699064 -0.39437103 -0.16791856
000020 f5 59 f4 3d 52 64 fc bd 30 e1 a7 3f
       0.119312204 -0.12323822 1.3115597

weight f4 [1, 11]
000000 c4 2f 5d c0 b1 07 48 c0 a5 34 40 40 0f 48 4e c0
       -3.4560404 -3.1254694 3.0032132 -3.223148
000010 72 d0 4d 40 c6 44 64 c0 d3 24 59 c0 b9 5e 5e c0
       3.2158475 -3.5666976 -3.3928726 -3.4745314
000020 1a 8d 52 40 50 0d 53 40 77 09 51 40
       3.2898622 3.2976875 3.2662027
