preliminary/net.pkl (torch_old, 339975 bytes, 11 tensors)

weight f4 [176, 352]
000000 1d d0 2b bd 32 ed 99 bd b2 8b d4 bd 52 8d 25 bd
       -0.04194652 -0.075159445 -0.10378207 -0.040417977
000010 1b 07 07 bd 4a 38 c5 bc 5d d3 15 bd 25 8a a9 bc
       -0.03296576 -0.024074692 -0.036578525 -0.020695755
000020 c5 61 0b bd 7f 5f b3 bd 90 60 8d bb 55 f3 5b bd
       -0.034028787 -0.08758449 -0.0043144897 -0.053698856
000030 e5 fe 6c bd df f2 d9 bd f4 ea ae be b4 45 b1 3b
       -0.057860274 -0.10642027 -0.3416363 0.0054099206
000040 be cc 89 3e 9f d3 54 3e f4 20 21 be d9 0c de bd
       0.26914018 0.20783852 -0.15735227 -0.10842294
000050 4b 51 25 be 67 77 b6 3d 4e a3 4e 3e 4d 17 3d 3e
       -0.16144292 0.08909493 0.20179483 0.1846592
000060 09 15 a2 bd 19 59 0a be d6 d0 62 be 1b f3 97 3e
       -0.079141684 -0.1351055 -0.22149977 0.29677662
000070 3d 08 83 3e e6 90 d0 3c c8 fa ca 3b c6 a3 a1 be
       0.25592223 0.025459718 0.0061944462 -0.31570262
000080 ef d5 9c be 52 69 5b bd 2c 17 01 3e 73 d9 09 bd
       -0.30631968 -0.05356724 0.12606496 -0.03365464
000090 63 c1 4f be d6 a5 da bc ec c0 a6 3c e5 72 9b 3c
       -0.20288615 -0.026690405 0.020355664 0.018975684
0000a0 54 28 11 3e 22 7f 52 be d9 0f 86 be ed c1 a9 be
       0.1417554 -0.2055631 -0.26183966 -0.33155766
0000b0 db 96 21 be 2d 3c b0 3d 2f d6 10 bd d4 f5 d3 be
       -0.15780203 0.086052276 -0.03536051 -0.4139849
0000c0 f7 21 00 3d 8c ae f6 bd b9 81 e3 3d 7e 19 35 3f
       0.03128239 -0.12045011 0.11108727 0.70742023
0000d0 0a 65 42 3f 51 1f ec be af 36 e7 bf 47 55 1d be
       0.75935423 -0.46117643 -1.8063563 -0.15364562
0000e0 0b a1 88 3f 7b 34 ac bf cf 83 36 3e 5b d2 34 3f
       1.0674146 -1.3453516 0.17823718 0.70633477
0000f0 76 6b 3c bf 53 4b da be ee 4a 20 3f 19 47 69 bd
       -0.7360147 -0.42635593 0.62614334 -0.05695257
000100 85 14 e5 3e 5c 3b de 3f 68 ff 75 be 57 36 9c bf
       0.44742218 1.7361865 -0.24023211 -1.2204083
000110 53 77 5d be 51 09 dc be 6a 87 53 3f 38 ad e0 3f
       -0.2162755 -0.42975858 0.826285 1.7552862
000120 05 4d 8e 3e 61 e7 4f bf 74 5f bd be 56 32 98 3f
       0.27793136 -0.8121243 -0.36986887 1.1890361
000130 7a 98 85 be ca 18 cd 3f d7 c5 a8 3f 08 f7 ff 3e
       -0.26092893 1.602319 1.3185376 0.49993157
000140 6a b2 12 3f 75 9e 05 bf b1 99 1d bf df 0c 51 bf
       0.5730349 -0.5219491 -0.6156264 -0.81660265
000150 81 43 bc bf c4 73 0f 3f 20 ef b0 bf 33 2c 46 bf
       -1.47081 0.5603602 -1.3822975 -0.7741119
000160 09 e0 84 3d 4f b8 f7 3d eb ee 08 3e ca 3c 3a 3d
       0.06488044 0.12095701 0.1337239 0.04546813
000170 de b7 0c 3e f2 34 ec 3d bc d0 5f 3d 8d ec d4 3d
       0.13742015 0.11533536 0.054642424 0.10396681
000180 16 cf ff 3d 20 cb 8e 3d 3e 32 15 3e 00 53 84 3d
       0.124906704 0.06972337 0.14569947 0.064611435
000190 c4 07 9e 3d e5 4f 27 3e a2 9c 4a bc 1e 44 9f 3e
       0.07716325 0.16339071 -0.012366446 0.31106657
0001a0 f5 10 83 3d f8 e8 93 3e 4a 08 c1 3d b6 d9 b9 3d
       0.06399719 0.2888868 0.09425409 0.09074728
0001b0 ca ee 7c be da e1 23 3f a3 19 a9 bd a4 6a a2 3e
       -0.24700466 0.640165 -0.08256843 0.31721985
0001c0 7f c8 5d 3e ba 9e c3 3d b0 60 3e bd e1 37 8f 3e
       0.21658514 0.09551759 -0.046478927 0.2797232
0001d0 ec 5a 22 3d d7 8e 3a 3e 1c e2 cd 3d 5f 1b 8a 3d
       0.03963749 0.18218552 0.100528926 0.06743502
0001e0 d0 a4 ed bd b5 55 a2 3e 61 95 05 3f f6 82 b0 3e
       -0.11603701 0.31706014 0.5218106 0.34474915
0001f0 e7 25 d4 3d c5 f8 f0 3d fd ec 7c be a6 45 e9 3e
       0.10358792 0.11766199 -0.24699779 0.4556095
000200 2a 8f e5 3e 99 f6 8e 3e 01 df ac 3c 0e d3 67 3d
       0.44835788 0.27922514 0.02110243 0.05659776
000210 34 1a 30 bd 4e 89 da 3b 18 ad 95 3c e7 65 70 be
       -0.04299374 0.0066692 0.018271014 -0.23476373
000220 9f d6 69 3d e8 15 15 bf 69 63 ab bd 0a 88 af 3c
       0.057089444 -0.5823655 -0.0836857 0.021427173
000230 38 29 54 bf 4c 66 6a 3f 55 1d fd be bb d9 d9 3e
       -0.82875395 0.9156234 -0.4943644 0.42548928
000240 7e ec 3d 3e 9f 1b e8 be de 7c 06 3d a9 a0 1a 3e
       0.18547246 -0.45333573 0.032833926 0.1510035
000250 a9 0e 5c bf d7 43 c3 bd 3d 7a b6 3e ce 17 ac bf
       -0.8595987 -0.09534424 0.35640135 -1.3444765
000260 6a ad 25 bf 8e b8 cf 3f 69 3e 19 3f 84 bd 10 bf
       -0.64717734 1.6228197 0.59860855 -0.5653918
000270 55 ac c2 bc d9 30 05 3f a8 e6 54 3e 99 a7 aa 3e
       -0.023763815 0.5202766 0.20791113 0.33330992
000280 50 2f 37 3f 4d 81 df 3e 77 d7 55 bf 86 04 58 3f
       0.7155657 0.43653336 -0.835319 0.843819
000290 5c e9 4c 3e 37 aa 34 3f 5a 0c de 3e 77 11 35 be
       0.20010895 0.7057223 0.43368798 -0.17682444
0002a0 06 7e 46 be 2e 2a 2b 3e e8 16 89 3e ed df 8c be
       -0.19384012 0.16715309 0.2677529 -0.27514592
0002b0 f8 62 cb be de f2 91 be 08 32 b5 be b8 10 12 bf
       -0.39723945 -0.28505605 -0.35389733 -0.5705676
0002c0 0d b3 30 bb 7a f6 46 3d 08 3e 04 3d d3 da 5e 3d
       -0.0026962191 0.048574902 0.03228572 0.054407906
0002d0 f8 26 81 3b 11 4d 19 3d 06 52 35 3c 92 8c db bc
       0.003941413 0.037427012 0.011066919 -0.026800428
0002e0 44 5c 73 3d d5 3b 4d 3d de 8e 56 3d 82 f9 78 3a
       0.059414163 0.05010589 0.052382343 0.0009497629
0002f0 c2 d8 ad bb ac c6 01 be 2c ef 08 be aa 80 9c 3c
       -0.0053053806 -0.12673444 -0.13372487 0.01910432
000300 50 35 c1 bc 66 d2 bf 3d e7 3e b2 3d 86 7e 51 be
       -0.023584992 0.09366302 0.08703404 -0.20458421
000310 c5 fb 31 3d f1 80 a1 3d a9 8d 8e 3d 2a ac db 3d
       0.043452997 0.07885922 0.06960613 0.10726197
000320 50 5f 41 3d ba 4d 30 be d6 6f a1 3d 2a 60 09 3e
       0.047210038 -0.1721715 0.07882659 0.1341559
000330 ee 1a 57 3d 06 5e a9 3e 68 6f 07 bd 4e 9f 74 bd
       0.052515917 0.33079547 -0.03306523 -0.059722237
000340 ff 31 94 bc 0e ca 38 bd b3 25 a3 bb 96 6b 74 3e
       -0.018090246 -0.04511457 -0.0049788593 0.23869166
000350 18 f7 34 be 84 be 37 3e ee 3c 92 3d 07 30 02 3d
       -0.17672384 0.1794377 0.07140528 0.031784084
000360 d9 ee 32 3e ca ec 9c 3d 56 ca 59 3d 0d d2 71 3d
       0.17473926 0.076623514 0.05317148 0.05903821
000370 b7 1a 6e be 80 70 44 3e fb 98 4a be 3d 67 6a bf
       -0.23252378 0.1918354 -0.1978492 -0.9156378
000380 38 6b 94 3e 04 ca 26 be fe 79 b0 3d a7 f1 94 3e
       0.2898805 -0.16288 0.08617018 0.29090616
000390 e2 42 33 3d f4 91 be 3e 3b be 12 bf 4a ff c4 bd
       0.043764956 0.37220728 -0.5732152 -0.09619005
0003a0 42 dd 91 3e 72 18 ca 3f d9 4f 9d bf f2 94 29 40
       0.2848912 1.578871 -1.2289993 2.649716
0003b0 18 20 cf bd f9 6d f6 be e9 1b 8f 3e 88 ce 06 3f
       -0.10113543 -0.48130777 0.2795098 0.5265889
0003c0 ac d6 ad 3c 57 65 26 3f 3b 9b b2 3e ed 0e 1a bf
       0.021220528 0.6499838 0.34884056 -0.60179025
0003d0 53 1a 3b 3e 48 78 ff be af 72 8b bf 23 63 17 be
       0.1827176 -0.49896455 -1.0894374 -0.14783911
0003e0 01 8e cd b9 c3 a1 9a 3e 08 61 c4 be cd 16 ef 3f
       -0.00039206448 0.3020154 -0.3835528 1.8678833
0003f0 43 5d 55 be da 67 30 3e 40 8a d5 3e 36 00 fb 3e
       -0.20836358 0.17227116 0.4170704 0.49023598

bias f4 [176]
000000 be d0 97 3c f6 3f cc bc 9d 02 61 36 70 16 20 bc
       0.018532153 -0.024932843 3.3529134e-06 -0.0097709745
000010 03 a5 9a 3a 11 e2 d0 3c cb 62 e2 3b 66 58 47 3c
       0.0011798445 0.025498422 0.0069087497 0.012167072
000020 8f c5 93 3b b1 5c 49 3b a8 fd ff b7 03 84 3d bc
       0.004509635 0.0030725414 -3.0516487e-05 -0.011567119
000030 58 9e 94 bc 65 c2 8a bc fa 4e b6 bc 14 96 4d bc
       -0.01814191 -0.016938398 -0.022254456 -0.012547988
000040 0e 72 e9 ba 39 ed dc 3b 13 66 29 bc 03 26 97 3c
       -0.001781048 0.0067421463 -0.010339278 0.018450743
000050 92 2f 16 3b 36 9f 26 38 e7 f0 22 bc 30 74 f2 3b
       0.0022916538 3.972576e-05 -0.009945131 0.0073991045
000060 6f 9b 97 bb 82 22 bf 3b 3b 19 b2 ba 25 71 dd bb
       -0.0046266834 0.005832971 -0.0013587842 -0.0067578726
000070 0b c7 e3 3b 23 a0 f1 3c 02 f4 4a bb 15 e2 0c ba
       0.006951218 0.029495304 -0.0030968194 -0.0005374265
000080 2f 21 fb 3a 8e c5 8c bb 3f 51 54 3c 47 11 24 3b
       0.001915967 -0.0042960113 0.012958824 0.0025034712
000090 e8 dc b0 b7 1f 6e 64 bc 3b 62 7a bb 3d db 27 bc
       -2.1083702e-05 -0.013942271 -0.0038205523 -0.010245142
0000a0 5b e9 c6 3c 70 d2 84 bb bd c0 42 bc 8a 1a e3 ba
       0.024281194 -0.0040534064 -0.011886773 -0.0017326635
0000b0 8f 44 30 bb 62 20 c8 3c 15 25 ce bb 9d 35 21 3c
       -0.0026896333 0.024429504 -0.0062910416 0.009839443
0000c0 52 22 54 3c ad 00 21 3c 50 f4 51 bc a3 ac f3 3a
       0.012947636 0.009826821 -0.012814596 0.0018590878
0000d0 7f 3b 64 3c 2b de 7e 3b 64 d1 23 bb 78 28 d4 bc
       0.013930201 0.0038889747 -0.0024996633 -0.025898203
0000e0 59 cd d3 3b 82 57 b6 3b df c9 1d 3a 4b 45 36 3b
       0.0064636883 0.005564631 0.0006019156 0.0027812298
0000f0 b7 e7 b3 3b 61 84 82 3b f0 01 81 3b d2 cd 1b 3b
       0.005490269 0.003983066 0.0039369985 0.0023773802
000100 b4 f2 89 3b 04 95 b2 3c c3 ef 1d bc 3e 37 34 bb
       0.0042098407 0.021799572 -0.009639683 -0.0027498747
000110 73 19 69 3c ac e1 a0 bb 62 23 ea ba 41 a6 9f ba
       0.014227259 -0.0049097147 -0.0017863328 -0.0012180285
000120 74 28 3f 3c f8 ad d4 bc 4c 7b 7a 3c bc de 94 3c
       0.01166736 -0.025961861 0.015288185 0.018172614
000130 fd 74 25 bc 28 9e 70 bc 97 4a 4b 3b b7 69 28 3c
       -0.010098693 -0.014686145 0.00310198 0.010279111
000140 27 0c f0 bb d3 72 13 bc 5c 32 2b 3c a6 81 ef b9
       -0.0073256674 -0.008999544 0.010449018 -0.00045682228
000150 86 a4 87 3c 80 c8 32 3b cd b0 3e 3a 38 a8 be bc
       0.016557943 0.0027280152 0.000727427 -0.023273572
000160 03 cf da bb 3b 49 8f bb a6 d7 83 3c 59 f3 56 bb
       -0.0066775098 -0.0043727434 0.01609404 -0.0032798855
000170 ea da c0 3c 6a 66 2d 3c 83 b9 61 3b 37 27 50 3c
       0.023541886 0.010583499 0.003444285 0.012704662
000180 c2 f6 8a 3c 68 12 c3 3b 22 c3 3e bc 18 ef 80 b9
       0.016963366 0.005953122 -0.011643203 -0.000245922
000190 ad 57 76 3c f3 52 e5 bc ee 9e 2a bc 8a e2 45 3c
       0.015035552 -0.027993655 -0.010413868 0.012077937
0001a0 9b 3c 80 b7 8a 18 04 bd e1 14 68 3b b1 c1 15 39
       -1.528701e-05 -0.032249965 0.0035412835 0.00014281903
0001b0 39 a6 60 bb f4 b9 c3 3c 07 26 9d ba d9 c0 ea 3c
       -0.0034278764 0.02389238 -0.0011989482 0.02865641
0001c0 00 ed 78 bc 78 e2 8f 3b 75 87 a8 3c b3 60 7f 3c
       -0.015193224 0.004391011 0.020572403 0.01558702
0001d0 c0 3f 50 bc c3 d3 9b 3c 1a ef 9d bc 08 11 86 3b
       -0.012710512 0.019021874 -0.019279052 0.0040913858
0001e0 e7 41 ad bc 88 5a 72 bc cf d6 5e bb 6f 8b 5f b8
       -0.021149589 -0.014792092 -0.0034002548 -5.32972e-05
0001f0 6c 08 2e bc 48 87 62 bc 85 c6 04 3d 0a 68 d4 3b
       -0.010622125 -0.013826199 0.032415885 0.006482129
000200 98 0e 76 3c 35 ec 42 3c 61 32 a1 ba a1 e6 91 bb
       0.015018128 0.011897136 -0.0012298339 -0.004452542
000210 51 77 f1 bb 63 2a 7b 3b 66 f7 90 bc 50 8e 1a 3b
       -0.00736896 0.0038324825 -0.017696094 0.002358336
000220 b0 3d 29 3c c4 6f bf bb 6d 03 42 3c ca 3b c0 3c
       0.010329649 -0.005842181 0.011841637 0.02346601
000230 5c f6 ff bc dc 1e 0e bc 6c d0 54 bb ba a5 2a bc
       -0.031245403 -0.00867435 -0.0032472862 -0.010415489
000240 3d b1 8a 3c f8 eb 0c 3c b5 09 09 bd ad d7 db b6
       0.016930217 0.008601181 -0.033456523 -6.5518166e-06
000250 25 29 bd 3c 60 99 b2 3c 10 0c dc 3a 5c 4b dd bc
       0.023090908 0.02180165 0.0016788263 -0.027013473
000260 eb 62 03 3d 42 bc 6b 3b 3f 70 06 bc cf 0d ce b8
       0.032076757 0.0035970365 -0.0082054725 -9.8254175e-05
000270 fd b3 91 3c 98 10 c9 3a bd 6b 8f bb 12 43 01 3a
       0.01778602 0.0015340028 -0.004376857 0.0004930954
000280 2b 04 ec bc e0 30 df 3b 56 d9 05 39 1b 05 d5 bb
       -0.028810581 0.0068112463 0.00012764832 -0.0065008528
000290 86 84 e7 3c b7 04 a2 3c 1c d0 10 3c 10 4a 03 3b
       0.028261434 0.019777639 0.00883868 0.0020033158
0002a0 fc c6 69 3c 5a 65 a8 bc b9 33 88 3c f9 6f 91 bb
       0.014268633 -0.02055614 0.016626226 -0.004438397
0002b0 35 9a 16 ba a0 03 cd ba d6 c0 0c bc 93 4a e5 3b
       -0.00057450245 -0.0015641339 -0.008590898 0.0069974153

weight f4 [88, 176]
000000 6a 14 93 bc 76 7e 89 bd 6b 48 6b bf dd 5c 4f be
       -0.01795407 -0.06713574 -0.91907376 -0.20250268
000010 02 f0 5d 3e 3b df 77 3b 68 5d f6 3d 82 2f aa bc
       0.21673587 0.0037822265 0.120295346 -0.020774607
000020 8c cd d0 3d 35 3d bd bc 0d 0a 00 3f 14 0c 9d bd
       0.10195455 -0.023100475 0.50015336 -0.07668319
000030 a7 4d 77 bd 6e 42 94 3d 73 b1 9b 3c b6 fa af 3c
       -0.06037679 0.07239233 0.019005513 0.021481853
000040 b1 53 32 be 70 45 7f bd 10 90 fc 3c e0 a5 3a 3d
       -0.17414738 -0.06232208 0.030830413 0.045568347
000050 95 85 2a bd d0 df 69 bf d8 61 1e be 78 3e a7 bc
       -0.0416313 -0.91357136 -0.15467012 -0.02041553
000060 ab 5b 5d 3d 5d 38 00 3c a4 ca b7 3d 8c 2f 65 3d
       0.0540425 0.007825938 0.089741975 0.055953547
000070 81 b2 3b 3e 42 aa 67 bd f8 e3 b9 bd a1 24 7f be
       0.18329813 -0.056558855 -0.09076685 -0.24916317
000080 cc df 1c 3e 16 1b 07 be 1e 6b d2 3d 05 70 2e 3e
       0.15319747 -0.13193926 0.10274337 0.1703492
000090 17 38 3e bf 91 f8 34 3b a3 d9 29 be 2e 4d 09 bd
       -0.74304336 0.0027613977 -0.16586928 -0.03352087
0000a0 60 89 8b bd 2a 64 48 3d f6 37 b4 bc 3a 53 e2 bd
       -0.068133116 0.04892365 -0.02199934 -0.110510305
0000b0 9b c1 14 3d 0b 82 4b bc 0f 87 ce bd d9 2f 4a 3d
       0.03631745 -0.012421141 -0.10084354 0.049362037
0000c0 b2 5d cf bc c9 f2 7a bd ff c3 88 3d 3e 4a dd 3d
       -0.025313232 -0.061266694 0.06678008 0.10805176
0000d0 ad 57 71 bc 61 f2 d3 3d fd b8 c7 3d 41 ed d6 3c
       -0.014730376 0.103489645 0.097520806 0.026236178
0000e0 a0 7b 8a bd 8e b9 57 3e 7e f8 25 be 8e 02 90 3d
       -0.06761861 0.21066877 -0.16208073 0.07031737
0000f0 87 b6 63 bc d4 6a 04 bc f1 1e ee 3c aa 7d 4f 3e
       -0.013898498 -0.00808211 0.029067488 0.20262781
000100 2f e0 10 bd 28 4d 96 bd c8 66 98 3d fb e9 88 bd
       -0.035370048 -0.07338935 0.07441479 -0.06685253
000110 cf 24 2b bd 47 f6 0c 3d a1 fa b2 bd bb 57 0b 3e
       -0.04178315 0.034414556 -0.0873921 0.13607685
000120 e9 8f a0 bd 1f 5a bd bc 24 fe 72 bc 89 ab 52 3d
       -0.07839949 -0.023114262 -0.0148311 0.05143312
000130 ad 34 a7 3d 7d dc 86 3d 32 00 e4 bd ca a4 18 3d
       0.08164344 0.065850236 -0.1113285 0.03726653
000140 83 8f f9 3c 33 c2 56 3d de 5d 4a bd ec 8f cc 3d
       0.03046394 0.052431297 -0.049405925 0.099883884
000150 84 33 a4 bd c7 25 04 3e 88 c8 19 bd e1 eb 37 3c
       -0.08017638 0.12905036 -0.037544757 0.0112256715
000160 0a 75 83 bd 1c bb 22 be 5f 86 9e 3c 82 15 59 be
       -0.06418808 -0.15891689 0.019351183 -0.21199611
000170 3a c4 58 bd 48 85 40 bd 88 a4 52 3e f5 d7 4d 3c
       -0.05292151 -0.047002107 0.20570576 0.012563695
000180 8a f9 3c 3d e2 90 8e 3d 43 f6 16 be 4f 32 8f 3e
       0.046136416 0.06961228 -0.14742379 0.2796807
000190 91 bf 3b 3d a6 e9 97 3d 5a 47 a4 3d ca 48 c0 3d
       0.04583699 0.07417612 0.08021422 0.093888834
0001a0 ad 49 61 3f 7a ed ca bc 22 f7 07 3e 1c 54 90 bf
       0.88003045 -0.02477144 0.13277867 -1.1275668
0001b0 65 08 dc bc a1 47 82 bd 59 db f7 3c 3c 05 3b bc
       -0.026859472 -0.063613184 0.03025596 -0.011414822
0001c0 77 6c 02 bd 5f d9 0c 3e 7a 7b f6 3c 05 94 8c bd
       -0.03184172 0.13754795 0.030088175 -0.0686417
0001d0 80 ee f2 3c e0 4e c5 3c 18 6c 9f 3c 43 0f 35 3c
       0.029654741 0.024085462 0.019460723 0.011051002
0001e0 59 d5 05 3d f8 a1 36 3c 9e de fc bc fd b8 31 bf
       0.032674167 0.011147015 -0.03086787 -0.69422895
0001f0 55 ec 74 3d 23 fd 85 3d 14 2e 2f 3d b8 57 38 3e
       0.059795696 0.065424226 0.042768553 0.18002212
000200 b9 2d 8d bd f4 86 8d bd 7c 65 01 3e ac 01 0c bd
       -0.068934865 -0.06910506 0.1263637 -0.034181282
000210 be 43 17 be 4d 05 9f bd f5 be 89 3d 9d c2 32 bd
       -0.14771935 -0.07764683 0.06725875 -0.04364263
000220 84 c7 55 3d 42 a0 df 3c ed ea 43 bd 33 7a 4f 3c
       0.052192226 0.027298097 -0.047831465 0.012663412
000230 f8 df 78 3c ae 65 db 3c ab 03 b3 bd 02 d5 aa bc
       0.015190117 0.026781883 -0.08740934 -0.020853523
000240 90 2a a2 bd 48 6b a7 3c dd f1 be 3c 60 31 5d 3f
       -0.079182744 0.020436898 0.023308689 0.86403465
000250 5f 99 44 bc de bb ad 3b f1 14 09 3e 4d cd 3b 3d
       -0.011999457 0.0053019365 0.13386895 0.045850087
000260 1e 88 1c bd 20 3f 2b 3e 9b ee 9d 3d 2e 9e 82 3f
       -0.03821575 0.16723299 0.07711526 1.0204523
000270 0c 22 82 39 8a d9 05 3e 97 0c 13 3b 3a d9 90 bd
       0.000248209 0.13071266 0.0022437924 -0.07072683
000280 d5 00 1a bd 1f 74 c2 3d 35 cc 17 bf 8d 91 22 3c
       -0.03759845 0.094948046 -0.5929597 0.009922397
000290 71 82 71 bd bb cb a4 bd 0f 96 83 bd ac 12 ff 3d
       -0.05896229 -0.08046671 -0.06425106 0.12454733
0002a0 df d6 80 3d f8 15 77 3d cc 9a 39 bd fa 2b c1 3d
       0.062909834 0.060323685 -0.04531364 0.09432216
0002b0 78 07 fd 3d db 56 bf 3c 34 2d 3d bd c8 aa b0 bd
       0.1235494 0.023356846 -0.046185687 -0.08626324
0002c0 13 13 5c bd 79 f1 81 3c 2f 11 65 bf 7d f1 f3 bd
       -0.053729128 0.015862213 -0.89479345 -0.119112946
0002d0 28 dc 21 3e 67 cf 1f bd 22 0b 3b 3e e7 3d 3d bd
       0.15806639 -0.039016154 0.18265966 -0.046201613
0002e0 c9 33 bd 3c 93 c1 c3 bb a3 05 c6 3e c7 d7 ef bd
       0.023095982 -0.0059740036 0.38676175 -0.11711078
0002f0 98 5c 17 3b be ee 73 3d aa 71 0c 3c d4 04 c0 bc
       0.0023095962 0.059553854 0.0085720215 -0.023439802
000300 6d b0 6d be a1 00 71 bc d3 cd 8a 3d 96 3a 99 bd
       -0.23211832 -0.014709623 0.06777539 -0.074818775
000310 cc 7e bb bb a6 5d 6d bf 81 6f 3b be 80 64 ed bd
       -0.0057219025 -0.9272102 -0.18304254 -0.115914345
000320 dc f6 9e 3c 16 82 ea 3b d4 ea 79 3c bc de b4 3d
       0.019404821 0.0071566207 0.015253741 0.08831546
000330 35 82 86 3d 31 a3 c0 bd a8 56 37 be 37 6b 93 be
       0.06567804 -0.09406126 -0.1790415 -0.28792736
000340 ee cb 3a 3e 0c 6a df bd 01 df 32 3d b6 3d 06 3e
       0.18241856 -0.10908899 0.043669704 0.13109478
000350 51 81 34 bf f0 58 4d bb 37 5b 91 bd fe ca 14 3d
       -0.7050982 -0.0031333528 -0.07097476 0.0363264
000360 e6 fc 57 bc fd b0 80 bb 79 bd 6d bc 47 7c 70 be
       -0.013182854 -0.0039273486 -0.014510506 -0.23484908
000370 6c ec b3 3c 59 c9 da bc ae 55 c2 bd 4a f8 30 bd
       0.02196332 -0.026707338 -0.09488998 -0.043205537
000380 36 d3 bc bc 37 5f 7d bd ce 43 e9 bc 19 97 f9 3d
       -0.023049932 -0.061858382 -0.028474715 0.12187023
000390 c3 14 a2 bc eb b4 54 3d ca cc 0c bb 24 36 13 bd
       -0.01978529 0.05193035 -0.0021484368 -0.035940304
0003a0 0e 00 de 3c e4 87 c7 3d 6a 1c 57 bd 29 c8 44 3e
       0.027099635 0.09742716 -0.052517332 0.1921698
0003b0 61 f9 a5 bd 43 72 6b bd c8 c3 20 3e 45 c7 1f 3e
       -0.08104206 -0.057482015 0.15699685 0.15603359
0003c0 d6 80 b2 3c 82 66 ac bd dc 55 08 bd 2e ff 64 be
       0.02178995 -0.08417989 -0.033285007 -0.22362968
0003d0 9e 7a c6 bd 15 23 cf bb 83 9b 65 be 81 a0 86 3d
       -0.09691356 -0.006321321 -0.22422604 0.065735824
0003e0 fd ef f1 3c 46 21 1d 3c e4 26 d5 bd c0 22 34 bc
       0.02953338 0.009590453 -0.104078084 -0.010994613
0003f0 c3 ae 98 3d 27 ef d8 bc 3b cd dd bd d1 a9 d7 bd
       0.07455208 -0.026481224 -0.1083016 -0.10530437

bias f4 [88]
000000 97 e6 8d 3c 95 bc 25 bc 6b 99 3b bd a1 05 c4 3b
       0.017321868 -0.010115762 -0.045800608 0.0059821163
000010 5b 95 dd 3c b1 a6 30 bd e5 eb f4 3c 65 cf 79 3d
       0.027048757 -0.04312772 0.02989764 0.060988802
000020 d9 d6 cd 3c 1c f4 a6 bb 35 d8 86 3d 41 75 03 3d
       0.025126861 -0.005095018 0.06584207 0.032094244
000030 2a b4 3d bd 56 bd b4 3c de 85 59 3d 5a 80 f4 bc
       -0.046314396 0.022062939 0.05310618 -0.029846359
000040 65 79 47 3d 75 6a f3 3c c2 ce e8 3a 7d dc 11 39
       0.048699755 0.029713849 0.0017761814 0.00013910416
000050 73 29 51 bd 61 89 23 bd b9 40 5b 3d cc c0 61 bd
       -0.05106492 -0.039925937 0.05352852 -0.055115506
000060 1b 31 8b bc 68 1e 47 3d 75 62 ed 3b 50 a1 8c bc
       -0.016991189 0.048612982 0.007244403 -0.017166764
000070 cf 74 3b 3c a7 e3 12 bc 5d cd 2e 3d c5 00 eb 3c
       0.011441424 -0.008965409 0.04267632 0.02868689
000080 a8 ce 94 bc 0d 19 92 bc 85 d3 8d bd e4 49 b8 3d
       -0.018164948 -0.01783421 -0.0692511 0.089984685
000090 ae b4 e3 3c 7f b8 8b bc 7e 41 95 3b e6 bd 9f ba
       0.027796116 -0.017055748 0.0045549264 -0.0012187331
0000a0 ab 4a 26 3d 6d 6d ab bd 2e aa 87 3d ef 6b 00 bd
       0.040598553 -0.08370481 0.06624256 -0.031352933
0000b0 a6 3a fb bb c4 37 8e 37 13 b6 e5 bb 24 d1 0d bd
       -0.0076669035 1.6953687e-05 -0.0070102303 -0.03462328
0000c0 4f 54 64 3d b7 3a 5b 3d 86 18 0e 3d 0f df e6 bc
       0.055744465 0.05352279 0.034691356 -0.028182535
0000d0 1f 1b 94 bd 86 49 a9 3c 57 79 5d bd 64 67 8d bd
       -0.072317354 0.020664942 -0.054070797 -0.06904486
0000e0 b4 67 34 bd 3c 9b 72 bc df 0d 6a 3d 53 87 01 3d
       -0.04404421 -0.014807519 0.057142135 0.031623196
0000f0 d9 ea 44 bd df ef f3 3c 5f 54 0b 3c 03 41 db 3c
       -0.04807553 0.029777465 0.008504002 0.026764398
000100 e1 6b 5c 3c c8 28 85 3d 2e 1b 17 3d b9 1f 0a bd
       0.013453455 0.06501919 0.036891155 -0.03372166
000110 41 90 17 bd d5 e0 ab 3b ed 50 47 3d 10 d8 b9 bc
       -0.037002806 0.005245308 0.04866116 -0.022686034
000120 e3 7b 03 bd cc b8 0a 3d f8 a9 f8 3c 0a 16 ed 3c
       -0.03210057 0.033867642 0.030354485 0.028941173
000130 c4 5c c1 3c 22 8a 8a 3c 52 c5 d3 bc 6c a3 c7 bb
       0.023603804 0.01691157 -0.025850926 -0.0060924795
000140 74 cc 02 bd 49 f3 8b 3a 97 d0 5f 3d f8 a1 c0 3c
       -0.031933263 0.0010677363 0.054642286 0.023514733
000150 99 aa c2 3b 5a 2d 21 bd b5 e2 0f 3d f4 ee 3e 3c
       0.005940747 -0.03934989 0.035128314 0.011653651

weight f4 [44, 88]
000000 64 2f 3b 3e ec 9f 1a bd 9b e8 b8 3c 3b 35 11 3e
       0.18279797 -0.03775017 0.022571852 0.14180462
000010 52 26 3f 3e 8b e1 fe 3c 41 a7 2a 3c f6 9f 6f 3c
       0.18666962 0.031113407 0.010415853 0.01462554
000020 59 07 93 3e 39 0c 49 3d a6 d5 ff 3d b2 06 8e 3c
       0.28716543 0.049083922 0.12491922 0.017337177
000030 1f 62 7b bd e4 28 3f 3e 84 b8 39 3e 7f e7 18 bc
       -0.061372872 0.18667942 0.18136793 -0.009332537
000040 f3 0c 29 bd 25 06 b7 3d a4 de f9 3d d0 f8 30 bd
       -0.041272115 0.08936719 0.122006685 -0.043206036
000050 91 c7 10 3e f7 45 28 bd ed ae da bd 2e 9b d3 bd
       0.14138629 -0.04108235 -0.10677896 -0.103323326
000060 8b 7e 2f 3e 16 52 9e bd 05 b8 a6 bd 84 27 30 39
       0.17138116 -0.077305004 -0.08140568 0.00016799389
000070 da 83 29 bd 44 77 0f be 59 a7 6e bd 9b e1 a9 3d
       -0.04138551 -0.1401034 -0.058265064 0.08294984
000080 cc ce e8 3d 4f b8 fc 3d 40 32 a2 bc e8 25 bd bc
       0.113675684 0.123398416 -0.019799352 -0.023089364
000090 51 00 9e 3e fe 75 10 3e 47 42 37 bd a1 9a c6 ba
       0.30859616 0.1410751 -0.04474094 -0.0015152284
0000a0 26 50 80 3b f9 9b 59 bd 7d 8e 13 bd e8 ca ed 3d
       0.0039158044 -0.053127263 -0.03602456 0.11610967
0000b0 fd c3 24 3e 5e c7 40 3e 49 22 2d be 9d 10 d6 bd
       0.16090389 0.18826053 -0.1690761 -0.104523875
0000c0 d0 9c 00 3e 9a 83 23 bd 9f 96 31 3e 11 9a dc bc
       0.12559819 -0.039920427 0.17342614 -0.026928933
0000d0 5d d8 90 bd aa 78 09 be 00 b0 e5 3d 6a 3b 0c be
       -0.07072518 -0.13424936 0.1121521 -0.1369454
0000e0 02 b4 37 3d ca 1e c8 3c 45 ca e4 bc fc 6a af bc
       0.044849403 0.024428744 -0.02792848 -0.021413319
0000f0 a8 2a f0 3d dc 74 27 3d 76 9b eb bd 8a 19 d4 3c
       0.11726886 0.04088293 -0.11504261 0.025891084
000100 6f 81 2a 3e 4a 96 25 bd fa e0 1e bd a1 70 24 be
       0.16650937 -0.04042653 -0.038788773 -0.1605859
000110 56 90 8d 3d 10 1f fa bd 31 5f 74 bd 82 42 31 be
       0.069122955 -0.12212956 -0.059661094 -0.17310527
000120 45 26 94 bd 47 f6 56 bd 8b 42 69 3e 73 d9 1b be
       -0.07233862 -0.052480962 0.2277929 -0.15219669
000130 9a 1c 10 3e 41 4a 0d 3d 02 7c d9 be 3a 06 a0 3d
       0.1407341 0.034494642 -0.42477423 0.078136876
000140 29 19 04 3d cf 49 e4 3e 7d 70 0a be c3 ad 0f be
       0.032250557 0.4458756 -0.13519473 -0.14031129
000150 58 1b 25 3e 0b f1 a2 3d 2b 32 5a 3d f0 9b 1d be
       0.16123712 0.079561315 0.0532705 -0.15391517
000160 9c e3 03 3e 3e 2a c9 3c 90 0a b5 bc 45 c1 0c 3e
       0.12879795 0.024556275 -0.022099763 0.13745601
000170 72 bd 7f 3e 29 50 0a 3e 5c 70 57 3d 21 bd 30 3e
       0.24974611 0.13507141 0.05259739 0.17259647
000180 e8 37 8b 3e 97 e8 85 3c a5 a4 31 3e 12 cc 88 3c
       0.2719109 0.016346259 0.17347963 0.01669887
000190 42 cd 86 3c e6 c6 44 3e f4 da 51 3e 73 fe 9b 3a
       0.016455296 0.19216499 0.2049368 0.0011901393
0001a0 ec e8 b4 bd 66 6c 67 3e 25 05 72 3d 4d ff 5c bd
       -0.08833489 0.22599944 0.059086937 -0.05395441
0001b0 1e eb 71 bd d0 16 87 bd 6e 71 a8 bc db 81 8d bd
       -0.059062116 -0.06596148 -0.0205619 -0.069095336
0001c0 85 d0 fc 3d b9 6b 1b bd c4 2e 1f be 9c cc 0e 3e
       0.123444594 -0.03794453 -0.15545183 0.1394524
0001d0 01 90 61 bc 2e 7b a5 be 3a 7c f1 3c 10 82 82 3e
       -0.013767243 -0.3232054 0.029478181 0.25489855
0001e0 51 a7 cf 3c 78 39 38 3d c6 80 a1 bc c4 4c b3 3d
       0.025348337 0.04497668 -0.019714724 0.08754876
0001f0 fe 78 9d 3e 9d 09 c3 bc 0a bb da bb ce 2e c3 3b
       0.30756372 -0.023808295 -0.006675129 0.0059565073
000200 c0 a5 13 3c 6b f8 7d bd 29 a4 49 bc 8e 6b 8f 3d
       0.009011686 -0.062004488 -0.012307205 0.07002936
000210 78 47 8b 3d b6 63 39 3d 18 54 91 be ae 10 0e be
       0.06800741 0.045261107 -0.2838447 -0.1387355
000220 c9 e1 5c 3e a5 e8 9a bd ab 94 76 3e 0d af 0d 3a
       0.21570505 -0.07563905 0.2408015 0.0005404808
000230 c2 a7 3c be 3e 61 e9 3b 85 d6 c6 bc cb 8f c6 bb
       -0.1842337 0.007122188 -0.024272213 -0.006059622
000240 2d a1 fb 3d 7c db b2 3d 5d 70 3e bc f3 64 82 3d
       0.12286601 0.087332696 -0.011623469 0.06366911
000250 ff f0 06 3e cc 72 0e 3d 84 ca 42 bc 20 d5 2e 3e
       0.1317787 0.034777448 -0.011889104 0.17073488
000260 72 f1 c1 3d 8e db 4c 3e 7a c9 9a 3c b3 08 e3 bd
       0.0946988 0.20005628 0.0188949 -0.110856436
000270 02 53 03 3e 53 e1 2b bd 37 45 2c bd fe 61 90 be
       0.12824634 -0.041962933 -0.042058196 -0.28199762
000280 9c 85 06 be 89 2a 82 bd 22 51 18 3e 27 ed 8f bd
       -0.13136905 -0.06355769 0.148747 -0.07027655
000290 68 35 eb 3d 43 ff f0 bd dc 77 ed be f5 71 e4 3d
       0.11484796 -0.11767437 -0.46380508 0.11154548
0002a0 88 c9 f7 bc 8a 44 03 3f 2c 39 3a bd 40 04 1d bc
       -0.030247465 0.5127646 -0.04546468 -0.009583533
0002b0 19 e6 b8 3d 61 d7 bd 3d e7 0d 51 bc df 08 1d bd
       0.09028263 0.09269596 -0.012759662 -0.03833854
0002c0 f0 c2 f4 3d 93 bf 28 3e 18 7f 30 bc 6c 1f 0c 3c
       0.11951244 0.1647933 -0.010772489 0.008552413
0002d0 d1 dd 59 3e ec cd 1c bd 0a 2e 43 3e 6c 5b b7 3d
       0.21276022 -0.03828232 0.19060531 0.08952984
0002e0 4c c7 89 3e eb 0d 8c 3d 27 8f f9 3d ef 61 39 3d
       0.26909864 0.06838592 0.12185507 0.045259412
0002f0 bf 86 06 be eb 33 98 3c fd 52 9b 3d e8 5c a7 3c
       -0.13137339 0.018579444 0.07584188 0.020430043
000300 9d da 4c bd 67 41 22 3d d0 d0 85 ba 09 97 03 be
       -0.050013173 0.039613154 -0.0010209326 -0.12850584
000310 30 fb d2 3d db 4a 83 3c a2 c9 83 3d 92 19 02 be
       0.103018165 0.016026905 0.06434943 -0.12705067
000320 82 48 20 3e 7d ff a1 bd bf cf 43 3d 8d d1 d7 bc
       0.1565266 -0.07910059 0.047805544 -0.026345039
000330 15 5d 83 bd d4 30 27 be fd c1 d3 bd 22 dc 5a 3e
       -0.06414238 -0.1632722 -0.10339735 0.21373037
000340 e7 4e 14 3e 38 dd 67 bc f4 e5 83 bc 40 9c 12 3e
       0.14483224 -0.014151864 -0.016100861 0.14317417
000350 7b c7 82 3e 44 a4 5e bd 7a d4 b1 3c 15 fb 3c bd
       0.25542817 -0.054355875 0.021707762 -0.046137888
000360 1b 47 05 3c fe 02 0c be a3 cd cf 3b 54 b9 09 3e
       0.008134629 -0.13673016 0.0063416525 0.13449603
000370 de b3 17 3b 9b 5c f8 3d 00 13 9e be b7 4f b3 bd
       0.002314798 0.12127038 -0.3087387 -0.08755439
000380 ca 8c 5e 3e 01 db 16 3d 73 f1 e3 3d d0 f7 b4 3d
       0.21733394 0.036829952 0.11130037 0.08836329
000390 cb cb 6b be 61 34 98 bd 17 cc d9 ba 2c 18 ff bd
       -0.2302696 -0.074318655 -0.001661661 -0.12455782
0003a0 3b 85 eb bc b8 9b 8c 3b d7 8c c5 bd 2a cc 44 3e
       -0.028750053 0.004291024 -0.09646004 0.19218507
0003b0 a0 d5 c9 3d 31 03 90 bd 4b 50 0e be ec 71 49 3d
       0.09855199 -0.07031859 -0.13897817 0.04918091
0003c0 89 e9 07 3e 56 a0 3b 3e fb 3b b8 bd ea 5e f3 bd
       0.1327268 0.18322882 -0.08995815 -0.11883338
0003d0 73 aa 98 3d 44 02 05 3d 5e fe f3 bd b5 d7 69 be
       0.074543856 0.032472864 -0.11913751 -0.22836192
0003e0 3c bd 30 be 6c 2c 65 3d 28 48 6f 3e 84 d3 b4 bd
       -0.17259687 0.055950567 0.23367369 -0.08829406
0003f0 07 3f 53 3e 31 5c 15 3c b4 82 e3 be 33 42 dd 3d
       0.20629512 0.009116218 -0.44435656 0.10803642

bias f4 [44]
000000 42 22 d6 bd d8 60 95 3d af 36 5b bd 14 14 44 bd
       -0.10455753 0.07293862 -0.053518947 -0.04787071
000010 a4 88 ec bc d0 a6 df bd 5c 8a 6f bb 41 a1 9e 3d
       -0.02887375 -0.10920489 -0.0036550974 0.077456005
000020 c8 ed 37 bd ab 22 d5 bc 96 78 34 3c 0c dc 0e bc
       -0.0449045 -0.026017508 0.011015078 -0.008719455
000030 19 83 b2 bc 4b 6a a0 bd a6 e2 7c 3d d0 9d 9c bc
       -0.021791028 -0.07832774 0.061739586 -0.01911822
000040 b9 8c 92 3d d4 f2 f5 bd 5e 54 62 3d 15 b8 9f 3d
       0.07155747 -0.120092064 0.05525624 0.07798783
000050 99 2f fe bd 4b 1a 5e 3c e3 aa 86 3d 4b 2f 70 3c
       -0.12411422 0.013556073 0.06575563 0.014659713
000060 c3 54 df bd 3c d2 34 3a b9 32 25 3d f6 d3 39 bc
       -0.10904839 0.00068977824 0.040331576 -0.011342039
000070 32 e5 a6 bd a9 bc bf 3d 97 3e 6c bd 67 3f a9 bd
       -0.08149184 0.09362156 -0.057676878 -0.08264046
000080 36 0a 8f bd 2b cf 25 3d 9a 00 65 3d 35 c2 c2 bd
       -0.069843695 0.040480774 0.055908777 -0.09509698
000090 49 38 47 bd da 0b 8a 3d 1a e8 89 bd 65 a7 65 3d
       -0.048637662 0.06740542 -0.06733723 0.056067843
0000a0 7c 53 cb bc 0f a5 04 be 2d d6 b3 3d 86 de ab bd
       -0.024820082 -0.1295359 0.08781085 -0.08392052

weight f4 [22, 44]
000000 96 3d 31 3d b1 99 d4 3e 4d 9d ea 3d 85 75 05 3e
       0.043271624 0.41523507 0.11455784 0.13033111
000010 a9 7c b7 be 56 3a 22 3e f0 d5 cf 3e 22 4a b3 3e
       -0.35837296 0.15842566 0.4059291 0.35017496
000020 05 17 c0 be fc a1 a1 be 27 98 f5 3e c6 ae c1 3d
       -0.37517563 -0.31568897 0.47967646 0.094571635
000030 4c f8 60 bc 34 84 56 be e5 1a c3 3c 8b 4e 48 3c
       -0.013731074 -0.20948869 0.023816535 0.012225757
000040 df 0e a5 3e b2 9a 9d bd 61 94 31 bc 89 f6 d7 3e
       0.32237908 -0.076955214 -0.010838599 0.4218028
000050 3f 4a a1 bd 0c 3c e8 be 02 d3 66 bd 49 bb c4 3e
       -0.078754894 -0.45358312 -0.056353576 0.38424137
000060 9e 98 75 3d f9 6b 4d 3e 36 10 e0 3e 3d 3b 24 3e
       0.05996 0.2006072 0.43762368 0.16038223
000070 22 2c 0a 3b f2 ef 08 be 41 8b 12 3e ba e8 20 be
       0.0021083434 -0.13372782 0.14310934 -0.15713778
000080 bc 41 81 bd aa 6a 8c 3e 00 4f ac 3e 82 6e 3d 3e
       -0.06311366 0.27425128 0.33654022 0.18499187
000090 9b 36 25 3e 57 78 1c be 60 31 f2 be 16 f5 16 be
       0.16134112 -0.15280281 -0.47303295 -0.1474193
0000a0 9e e1 83 be de 80 e1 bd fe c6 b0 3e 77 10 0e 3d
       -0.2575807 -0.110109076 0.3452682 0.03468367
0000b0 81 05 5b 3e a5 ca 87 3d 54 e5 ba 3d 97 82 11 3e
       0.21388818 0.06630448 0.09125772 0.14209972
0000c0 c3 11 0b be 28 db 69 3e c1 d3 6a 3d a6 7e 29 bd
       -0.13580994 0.22837508 0.05733085 -0.041380547
0000d0 8a cf 25 be 9b 82 62 bd 8c 2a d6 3d dd cb 77 3e
       -0.16192451 -0.055300336 0.10457334 0.24198861
0000e0 56 32 95 3e e5 3b 19 be 3a 92 da bd fd b0 4a 3e
       0.29139966 -0.14964254 -0.10672422 0.19794078
0000f0 c7 d9 11 3c e1 1a 3b bb 81 62 38 be cc e5 07 3e
       0.00890202 -0.0028549957 -0.18006326 0.13271254
000100 44 2b 87 3e b6 1e 26 be 66 63 24 be 58 95 8d bd
       0.26400197 -0.16222653 -0.16053542 -0.06913251
000110 91 79 a1 3e 86 45 94 3e ba e6 9d 3c 32 42 6f 3e
       0.3153806 0.28959292 0.019275058 0.23365095
000120 f0 07 9c 3e bd 5b 8a be 59 3a 3f 3e 3c 03 1e bd
       0.30474806 -0.27023116 0.18674602 -0.038577303
000130 ab 88 8c 3e ce cb 22 bd aa 05 22 bd af 48 53 3e
       0.2744802 -0.039745145 -0.039556183 0.20633195
000140 7e 4d 8e 3e b8 e5 99 be 1c d2 44 be d0 8f af bd
       0.27793497 -0.30058074 -0.19220775 -0.08572352
000150 a5 23 e7 bd 20 66 a1 bd dc a8 be 3d f0 15 80 3e
       -0.112860955 -0.07880807 0.09309551 0.25016737
000160 eb ac 08 3e b9 33 54 3e 88 c1 3c 3e e5 92 06 3e
       0.13347213 0.20722856 0.18433201 0.13141973
000170 1e 0c b0 be a3 b3 6c 3e 31 d1 ba 3e 8c f8 70 3e
       -0.34384245 0.23115401 0.36487725 0.23532313
000180 30 d6 15 be 89 54 1f be 62 d1 92 3d 07 ff 31 3e
       -0.14632487 -0.15559591 0.07168843 0.17382441
000190 eb 00 93 3e f0 64 4b bd 2e 19 1b be 6e 1f 71 3e
       0.28711638 -0.04965681 -0.15146324 0.23547146
0001a0 2a 3e 60 3e a9 08 2a be 4d 81 8d bd 8e 1f 97 3e
       0.21898714 -0.16604866 -0.06909428 0.29516262
0001b0 63 90 a2 3d 7c d3 94 be 68 8c d0 bc ab 70 62 3e
       0.07937696 -0.290676 -0.025457576 0.22113292
0001c0 e1 72 07 3e 65 2a 40 3e d5 ef 8d 3e 1b 90 49 3e
       0.13227417 0.18766172 0.2772204 0.19683878
0001d0 b4 c5 1d 3e f9 ce 5d be dd b6 63 3e 69 06 41 be
       0.15407449 -0.21660985 0.22237726 -0.18850102
0001e0 44 51 a3 3d c5 c6 70 3d 35 12 37 bd fb f3 43 3e
       0.079744846 0.05878331 -0.044695098 0.1913604
0001f0 f6 4c 70 3e 95 9d 58 be a9 67 b1 bd 1f cd ed bd
       0.23466858 -0.21153863 -0.0866235 -0.11611389
000200 96 c6 8b be 8d 0c 63 bd 4d 9b 20 3e 7e b9 4d 3e
       -0.27299947 -0.05543189 0.15684243 0.20090291
000210 ec da 15 bd d7 58 10 be 2a 45 06 be b5 45 f0 3d
       -0.036585733 -0.1409639 -0.13112321 0.117320456
000220 0a ac e1 3e 62 74 4a 3c 49 cd 25 bf b3 d1 b9 be
       0.44076568 0.012356849 -0.64766365 -0.362928
000230 93 b0 ee 3e e2 39 0d 3f 11 6a d2 be 94 7c e5 bd
       0.4661909 0.5516645 -0.41096547 -0.11205402
000240 98 5a 36 be cd 2e a1 3e b3 b2 e4 bd f6 12 c3 bd
       -0.17807996 0.3148102 -0.11166897 -0.09525101
000250 5b 8b 56 be ef 0f 99 3e 75 c3 1e 3e ce 34 86 be
       -0.20951597 0.2989497 0.15504248 -0.26212162
000260 69 e1 9e bc ec 28 f0 3e 6b 57 29 3e b4 4d fd be
       -0.019394593 0.4690622 0.16537254 -0.49473345
000270 6e 3b 4c 3d 0c cc 8d bd 42 69 d8 be d2 ec 36 be
       0.049861364 -0.069236845 -0.42267805 -0.17863777
000280 b1 b6 21 3d db fe c5 3d 59 06 3b be 3b e5 a1 3e
       0.03948087 0.096677504 -0.1826414 0.316202
000290 8c 06 dd bc c9 71 fe be 60 ae 56 be 53 51 82 bd
       -0.02698066 -0.49696186 -0.20964956 -0.063631676
0002a0 82 3a 32 3d 32 12 cd bd 1b 16 03 3f 29 71 16 bd
       0.04351283 -0.10013236 0.51205605 -0.03672901
0002b0 c9 8a 83 3e 42 15 4e 3d 95 fe ca be 5f 20 35 be
       0.25691822 0.05031324 -0.39647356 -0.1768813
0002c0 1d 5f 2e 3e 44 4b 9a 3e 1b fd fc 3b 62 bc ed 3b
       0.1702847 0.30135548 0.007720602 0.007255123
0002d0 5a f5 f3 be 4f 20 c0 3d 8a 79 19 3f cb c9 8b 3e
       -0.47648126 0.093811624 0.5995108 0.27302393
0002e0 0d 6f b9 be 31 db cd be ec c3 fe 3e 5c 68 0a 3e
       -0.36217538 -0.40206292 0.49758852 0.13516372
0002f0 30 24 19 3d 71 1e 99 be df 98 c1 bc 19 72 c4 3d
       0.037388027 -0.29906037 -0.023632465 0.09592075
000300 70 81 80 3d b0 ef 23 be d2 a8 65 3d 29 21 9b 3e
       0.06274688 -0.16009402 0.056069203 0.30298737
000310 60 81 1c bd 4e fc ac be 75 08 08 be ab 2e 10 3f
       -0.03820932 -0.33786243 -0.13284476 0.5632121
000320 7a 7e 89 bd 84 c8 4b 3d 20 b3 ec 3e bd 1b be 3d
       -0.067135766 0.049751773 0.46230412 0.092826344
000330 98 1e 22 3e 11 0a a6 3d 21 72 f0 3d 5a 77 89 be
       0.15831983 0.08107389 0.11740518 -0.2684887
000340 76 6b 5a 3e e9 ba 95 3e de bc be 3e 18 03 40 3d
       0.21330056 0.29244164 0.3725347 0.04687795
000350 c8 5d 49 3e 08 f8 74 3c db c0 fd be b0 ed 18 3d
       0.19664681 0.014951713 -0.495612 0.03733605
000360 66 1c db be ac c6 94 be 4e 12 ad 3e 80 b3 d1 3d
       -0.42795104 -0.29057825 0.33803028 0.10239315
000370 d7 52 61 be 30 a5 9a be 24 ef ec bd 03 e3 54 be
       -0.22004257 -0.30204153 -0.1156905 -0.20789723
000380 8d 1a 0f 3e 24 dc cf bd ea ce c6 be 42 2e 01 be
       0.13974972 -0.1014941 -0.38829738 -0.12615302
000390 b3 ba 20 3e 7a 4a 33 3e e3 a7 e5 bd a5 11 c2 bd
       0.1569622 0.1750888 -0.112136625 -0.09476022
0003a0 14 8b 05 be c6 71 89 3e e6 35 94 3d d1 5b 22 be
       -0.13041335 0.26844615 0.07236843 -0.15855338
0003b0 ca b3 fc bd ef 84 d0 3d 33 8b 88 3e 2c 33 ef bd
       -0.123389795 0.10181605 0.266687 -0.11679682
0003c0 1b b1 34 be bf 05 aa 3e 6f de d3 3c a7 87 78 be
       -0.17645685 0.3320751 0.0258629 -0.24270497
0003d0 63 57 a2 bd 5e a2 5b be d3 0a 7a be a7 71 3f bd
       -0.07926824 -0.21448657 -0.24418192 -0.046739247
0003e0 94 00 9f be fb 7b 86 3d 3f 7f e9 bd 15 f6 87 3d
       -0.3105513 0.06566616 -0.114012234 0.06638733
0003f0 6e 36 48 be 40 cb fa bd 17 34 61 be f3 5a 36 be
       -0.19552013 -0.12245798 -0.21992527 -0.17808132

bias f4 [22]
000000 60 e3 f0 3d 9f 70 2e be 8f 7e 96 bd e5 20 b0 bc
       0.11762118 -0.17035149 -0.07348358 -0.02150006
000010 71 48 36 3d 1b bd f4 3d d9 b0 f4 3b c9 d7 1a 3e
       0.04450268 0.119501315 0.007467371 0.15121378
000020 3d 1b 11 3e 6b 41 32 be 9d 26 41 be 28 05 71 bd
       0.14170547 -0.17407767 -0.18862386 -0.058842808
000030 e8 7c 5b 3e 8c cb 22 3e 0f f3 b8 bd 9a a0 fe 3d
       0.21434367 0.1589796 -0.09030735 0.12432976
000040 32 cf 50 be f6 4a e7 bd d2 ee 36 3e ae b4 f6 3c
       -0.20391539 -0.112935945 0.1786454 0.030115452
000050 a3 56 86 bc a8 0c 05 3e
       -0.016398733 0.12993109

weight f4 [11, 22]
000000 f1 3b 79 be 95 4b 1b bf 2e 18 36 bf 5b 1d be 3d
       -0.24339272 -0.60662204 -0.71130645 0.09282943
000010 66 d9 2d 3d 56 d2 00 3f 77 f9 19 3e d9 a5 6a be
       0.042443655 0.5032095 0.1503657 -0.22914828
000020 af 52 b2 be 71 7a 19 bf 5b 51 21 bf 8e dc f6 3e
       -0.34828708 -0.59952456 -0.63014764 0.48215145
000030 88 78 35 3f 52 4f 1e 3f 22 a8 cd 3e 05 94 35 bc
       0.7088704 0.61839783 0.40167338 -0.011082654
000040 cb 0a 32 bf f8 c0 16 bf d7 ee 07 3f b5 dc 15 3f
       -0.6954772 -0.58888197 0.53098816 0.585399
000050 83 b8 db 3d fa 23 a2 be 35 c3 fe 3e 97 16 f2 3e
       0.10728552 -0.31668073 0.49758306 0.4728286
000060 aa aa 05 3f c5 94 2d bf 56 ef d8 3e d0 14 34 bf
       0.5221354 -0.6780513 0.423701 -0.7034426
000070 00 ae 01 bf cc 59 f7 3e d3 c0 57 3f b9 9f 08 3f
       -0.5065613 0.48310697 0.842786 0.5336872
000080 ef ee ab 3e fb 5b 60 bf e6 a6 10 bf 1d df a2 be
       0.3358073 -0.8764035 -0.56504667 -0.31810847
000090 c2 d7 50 bf 42 fa 0d 3f 3e ae d2 3e e4 25 16 3f
       -0.8157922 0.5545999 0.4114856 0.58651567
0000a0 2a b6 18 bf c1 b5 0e bf 8d 31 d1 be ef d2 4c 3f
       -0.5965296 -0.55746084 -0.40858117 0.8000936
0000b0 a7 f9 21 40 c0 ce 3c bd 72 26 af 3e 32 76 01 c0
       2.5308626 -0.04609561 0.3420902 -2.022839
0000c0 11 07 0e 40 dc 08 04 bf 94 47 dd bf 86 3f f2 3f
       2.2191813 -0.5157602 -1.7287469 1.8925636
0000d0 d5 bb 16 40 e3 c8 10 3d 0c 82 4b 3e 74 01 1f c0
       2.3552144 0.03534783 0.19873828 -2.4844637
0000e0 f4 7e 84 bb 05 44 a5 3c dc 87 f9 bf ef 50 e8 3f
       -0.0040434543 0.020174036 -1.9494586 1.8149699
0000f0 9b a0 16 3e f2 5f f8 3e b0 34 6a be 79 b7 e1 be
       0.14709704 0.485107 -0.22871661 -0.4408529
000100 9f 93 f7 bf ba 7d fe 3f 82 68 be bd 38 29 1b bf
       -1.9341925 1.9882119 -0.09297277 -0.6060977
000110 9a 81 e8 be 3c 94 bd 3d 9b fc 21 be b5 51 30 3f
       -0.45411378 0.09256789 -0.15819018 0.68874675
000120 a3 96 2d 3e ce b0 98 be 55 ce 63 be 4b 77 cc be
       0.16951995 -0.2982239 -0.22246678 -0.39934763
000130 04 f1 c2 be 2a 84 b2 3e c8 83 26 3f 2a 47 33 3f
       -0.38074505 0.34866458 0.6504483 0.7003046
000140 d8 1a bb 3e ec f1 9e be fc e2 3b bf b0 49 38 bf
       0.36543918 -0.31043947 -0.73393226 -0.7198744
000150 db 66 65 3f 2c 24 a4 3e dc a8 a1 3e 3e 82 64 be
       0.8961007 0.32058847 0.31574142 -0.22315308
000160 86 45 d2 be 5c 98 f7 be 64 66 e1 be a5 7c bb 3e
       -0.41068667 -0.48358428 -0.4402343 0.36618534
000170 17 6a bf be ba 82 dc 3e 94 af 05 3f aa 74 0b bf
       -0.37385628 0.43068486 0.52221036 -0.5447489
000180 5f 7c 23 bf 9d b4 fd be e3 28 21 bf d0 7b 05 3f
       -0.6386165 -0.4955186 -0.62953013 0.5214205
000190 ca b3 94 3e a7 c6 e8 3e ad 53 0b 3f 37 88 e5 be
       0.29043418 0.4546406 0.54424554 -0.44830486
0001a0 07 eb f0 be 3a 4a ec be 86 2f 39 3f bf 24 9f 3e
       -0.47054312 -0.4615038 0.7233814 0.31082723
0001b0 35 24 07 3f 4a d4 d1 be 63 5f d0 bc 00 68 54 bf
       0.5278962 -0.40982276 -0.025436109 -0.8297119
0001c0 6b 9c 1d bf 8d 24 1d 3e 3e 91 80 be ee ca 11 3f
       -0.615668 0.15345974 -0.2511081 0.5695027
0001d0 a9 ef 12 3e 42 01 41 be c3 4b 95 bc bf 59 46 bf
       0.14349236 -0.18848136 -0.018224603 -0.7748069
0001e0 ea 86 3d bf b6 ce ad 3e ab 59 d5 3e 16 c9 20 3f
       -0.7403399 0.3394677 0.41669974 0.6280683
0001f0 d3 e3 4e 3e 15 5c 9a be 2e ad 1a bf 83 ee df be
       0.20204096 -0.30148378 -0.604205 -0.43736658
000200 38 f9 17 3f 3c 04 18 3f fd a4 84 bd 03 52 0a be
       0.5936465 0.5938146 -0.064767815 -0.13507847
000210 46 8f fb 3e 95 88 f9 3e 55 91 1c 3f 9b dc f1 be
       0.49132746 0.48737016 0.6115926 -0.4723862
000220 0f b0 4d 3f 9e 1e cf be 28 35 36 bf 75 13 2d 3f
       0.8034677 -0.40453047 -0.7117486 0.67607814
000230 ad ea 5f 3f e1 4e e4 3e 5a 77 09 3f 06 35 16 bf
       0.8746746 0.4459143 0.5369774 -0.5867466
000240 84 b8 f3 be 06 a0 0c bf bc fd e4 be 8d 2f 3f 3f
       -0.47601712 -0.54931676 -0.44724834 0.7468193
000250 de 4f 94 3e f6 a8 f8 3e 41 30 2a bf ea 79 1d bf
       0.28967184 0.48566407 -0.6647988 -0.6151415
000260 12 99 30 bf 8e 93 57 3f d6 f8 24 bd fe e4 58 bf
       -0.68983567 0.84209526 -0.04027637 -0.84724414
000270 6f 29 0f bf e0 58 15 3d 5b 9c a9 3d c6 f6 5f 3f
       -0.559226 0.03646171 0.082817756 0.8748592
000280 4b a6 2a 3d 94 1c ec bc 24 ea 84 be f3 5d 11 bf
       0.041662496 -0.02882222 -0.25959885 -0.5678398
000290 d3 14 4d bf 3b 97 07 be 66 f9 61 3f 5e 85 10 3f
       -0.801099 -0.13241284 0.88271177 0.564535
0002a0 a7 22 36 3e 35 09 25 be 66 5d 0c bf 0c 1e 19 bf
       0.17786656 -0.16116793 -0.54830015 -0.5981147
0002b0 0d 91 13 3f b5 2d 10 3f f3 58 b3 bd 38 de db bd
       0.57643205 0.56319743 -0.087572 -0.10735744
0002c0 ab 1a 45 bf 95 a6 5d be b2 8c 24 bf 01 04 44 3f
       -0.7699382 -0.21645577 -0.64277184 0.7656861
0002d0 d9 4b 62 bf 84 59 0f 3f 46 03 77 3f b5 15 2a bf
       -0.88396984 0.55995965 0.9648937 -0.6643937
0002e0 a0 c7 7f bf 81 2a 2b be 75 ff f7 be 84 ef 76 3f
       -0.9991398 -0.16715433 -0.48437086 0.9645922
0002f0 60 3b 01 3e f7 bc ed 3e 4a 27 69 3f e0 d2 79 bf
       0.12620306 0.4643323 0.91075575 -0.97587395
000300 2b 08 04 bf cf 50 b5 be c5 8c 19 3f 18 da f0 3e
       -0.51574963 -0.35413215 0.5998042 0.47041392
000310 8b 8b 74 3f b3 dc 75 bf c5 3c 47 be 01 3e 3b 3f
       0.95525426 -0.96039885 -0.19456775 0.73141485
000320 39 19 20 3f 2d 7e 30 3e 2e ae 9b be 32 90 5d bf
       0.62538487 0.17235632 -0.30406326 -0.8654815
000330 7a 71 bb bd 12 9c 3b bd aa 45 fb bd 6e b2 15 3f
       -0.09152503 -0.045803137 -0.12269147 0.5847539
000340 9c c2 59 3f fc 97 79 3e 7b 99 74 bf 99 2a 13 bf
       0.85062575 0.24374384 -0.9554669 -0.57486874
000350 97 c5 87 bd 55 ba aa 3d fd e6 42 3f 96 14 4b 3f
       -0.06629484 0.08336321 0.7613371 0.79328287
000360 f6 49 57 bf f3 09 22 bf 68 0e a2 3e 5a 08 13 3e
       -0.8409723 -0.6329643 0.31651616 0.14358655
000370 5e 03 a5 bf ad 8f aa bd 4b 0a c3 be b4 90 97 3f
       -1.2891653 -0.08328185 -0.3809379 1.1841035
000380 7d 7a 88 bf 85 72 f8 3e 3d c6 bd 3f eb 82 75 bf
       -1.066238 0.4852487 1.4826123 -0.9590289
000390 d5 ce b0 bf ce 5e 36 be 6b 84 53 be d4 df 6e 3f
       -1.381312 -0.17809603 -0.20655982 0.93310285
0003a0 b1 f4 ab 3e 06 76 03 3f 5d 98 97 3f 51 a6 8c bf
       0.33585122 0.51351964 1.1843373 -1.0988256
0003b0 5c 1d c9 be 52 9a d5 be f6 81 dc 3e d6 6f d5 3e
       -0.39280212 -0.417193 0.43067902 0.41686887
0003c0 97 47 61 3f c0 37 83 bf
       0.8799986 -1.0251389

bias f4 [11]
000000 b6 96 c1 3e 90 0e c3 bd e0 ee c2 3e 44 35 c6 3e
       0.37810296 -0.09524262 0.38072872 0.38712513
000010 3a cc af 3e 4c af 0f 3f a0 8c 7b bd d0 57 34 3f
       0.343355 0.56126857 -0.061413407 0.7044649
000020 b2 a1 a0 3d 43 dc 57 bf 02 11 3f be
       0.07843341 -0.8432047 -0.18658832

weight f4 [1, 11]
000000 ea 17 3d 40 7e 40 30 c0 57 3a 43 c0 c2 86 2f 40
       2.9545846 -2.7539363 -3.0504358 2.7426
000010 40 1b 3c 40 2a 74 3b 40 90 50 37 c0 af 1e 2d 40
       2.9391632 2.928965 -2.8642921 2.7049978
000020 97 f3 2d 40 50 c9 36 c0 4d d0 3b 40
       2.7179925 -2.8560371 2.9345887
